…
I0419 11:52:11.331159 45008 net.cpp:322] The NetState phase (0) differed from the phase (1) specified by a rule in layer data_2
I0419 11:52:11.331370 45008 net.cpp:49] Initializing net from parameters: 
name: "pirc_mnist_full_train_test"
state {
  phase: TRAIN
}
layer {
  name: "data_1"
  type: "ImageData"
  top: "data"
  top: "sim"
  include {
    phase: TRAIN
  }
  image_data_param {
    source: "data/train1_full.txt"
    batch_size: 100
  }
}
layer {
  name: "data_2"
  type: "ImageData"
  top: "data_p"
  top: "dummy_labels"
  include {
    phase: TRAIN
  }
  image_data_param {
    source: "data/train2_full.txt"
    batch_size: 100
  }
}
layer {
  name: "conv1"
  type: "Convolution"
  bottom: "data"
  top: "conv1"
  param {
    name: "conv1_w"
    lr_mult: 1
  }
  param {
    name: "conv1_b"
    lr_mult: 2
  }
  convolution_param {
    num_output: 20
    kernel_size: 5
    stride: 1
    weight_filler {
      type: "xavier"
    }
    bias_filler {
      type: "constant"
    }
  }
}
layer {
  name: "pool1"
  type: "Pooling"
  bottom: "conv1"
  top: "pool1"
  pooling_param {
    pool: MAX
    kernel_size: 2
    stride: 2
  }
}
layer {
  name: "conv2"
  type: "Convolution"
  bottom: "pool1"
  top: "conv2"
  param {
    name: "conv2_w"
    lr_mult: 1
  }
  param {
    name: "conv2_b"
    lr_mult: 2
  }
  convolution_param {
    num_output: 50
    kernel_size: 5
    stride: 1
    weight_filler {
      type: "xavier"
    }
    bias_filler {
      type: "constant"
    }
  }
}
layer {
  name: "pool2"
  type: "Pooling"
  bottom: "conv2"
  top: "pool2"
  pooling_param {
    pool: MAX
    kernel_size: 2
    stride: 2
  }
}
layer {
  name: "ip1"
  type: "InnerProduct"
  bottom: "pool2"
  top: "ip1"
  param {
    name: "ip1_w"
    lr_mult: 1
  }
  param {
    name: "ip1_b"
    lr_mult: 2
  }
  inner_product_param {
    num_output: 500
    weight_filler {
      type: "xavier"
    }
    bias_filler {
      type: "constant"
    }
  }
}
layer {
  name: "relu1"
  type: "ReLU"
  bottom: "ip1"
  top: "ip1"
}
layer {
  name: "ip2"
  type: "InnerProduct"
  bottom: "ip1"
  top: "ip2"
  param {
    name: "ip2_w"
    lr_mult: 1
  }
  param {
    name: "ip2_b"
    lr_mult: 2
  }
  inner_product_param {
    num_output: 10
    weight_filler {
      type: "xavier"
    }
    bias_filler {
      type: "constant"
    }
  }
}
layer {
  name: "feat"
  type: "InnerProduct"
  bottom: "ip2"
  top: "feat"
  param {
    name: "feat_w"
    lr_mult: 1
  }
  param {
    name: "feat_b"
    lr_mult: 2
  }
  inner_product_param {
    num_output: 2
    weight_filler {
      type: "xavier"
    }
    bias_filler {
      type: "constant"
    }
  }
}
layer {
  name: "conv1_p"
  type: "Convolution"
  bottom: "data_p"
  top: "conv1_p"
  param {
    name: "conv1_w"
    lr_mult: 1
  }
  param {
    name: "conv1_b"
    lr_mult: 2
  }
  convolution_param {
    num_output: 20
    kernel_size: 5
    stride: 1
    weight_filler {
      type: "xavier"
    }
    bias_filler {
      type: "constant"
    }
  }
}
layer {
  name: "pool1_p"
  type: "Pooling"
  bottom: "conv1_p"
  top: "pool1_p"
  pooling_param {
    pool: MAX
    kernel_size: 2
    stride: 2
  }
}
layer {
  name: "conv2_p"
  type: "Convolution"
  bottom: "pool1_p"
  top: "conv2_p"
  param {
    name: "conv2_w"
    lr_mult: 1
  }
  param {
    name: "conv2_b"
    lr_mult: 2
  }
  convolution_param {
    num_output: 50
    kernel_size: 5
    stride: 1
    weight_filler {
      type: "xavier"
    }
    bias_filler {
      type: "constant"
    }
  }
}
layer {
  name: "pool2_p"
  type: "Pooling"
  bottom: "conv2_p"
  top: "pool2_p"
  pooling_param {
    pool: MAX
    kernel_size: 2
    stride: 2
  }
}
layer {
  name: "ip1_p"
  type: "InnerProduct"
  bottom: "pool2_p"
  top: "ip1_p"
  param {
    name: "ip1_w"
    lr_mult: 1
  }
  param {
    name: "ip1_b"
    lr_mult: 2
  }
  inner_product_param {
    num_output: 500
    weight_filler {
      type: "xavier"
    }
    bias_filler {
      type: "constant"
    }
  }
}
layer {
  name: "relu1_p"
  type: "ReLU"
  bottom: "ip1_p"
  top: "ip1_p"
}
layer {
  name: "ip2_p"
  type: "InnerProduct"
  bottom: "ip1_p"
  top: "ip2_p"
  param {
    name: "ip2_w"
    lr_mult: 1
  }
  param {
    name: "ip2_b"
    lr_mult: 2
  }
  inner_product_param {
    num_output: 10
    weight_filler {
      type: "xavier"
    }
    bias_filler {
      type: "constant"
    }
  }
}
layer {
  name: "feat_p"
  type: "InnerProduct"
  bottom: "ip2_p"
  top: "feat_p"
  param {
    name: "feat_w"
    lr_mult: 1
  }
  param {
    name: "feat_b"
    lr_mult: 2
  }
  inner_product_param {
    num_output: 2
    weight_filler {
      type: "xavier"
    }
    bias_filler {
      type: "constant"
    }
  }
}
layer {
  name: "loss"
  type: "ContrastiveLoss"
  bottom: "feat"
  bottom: "feat_p"
  bottom: "sim"
  top: "loss"
  contrastive_loss_param {
    margin: 1
  }
}
I0419 11:52:11.331665 45008 layer_factory.hpp:77] Creating layer data_1
I0419 11:52:11.331859 45008 net.cpp:106] Creating Layer data_1
I0419 11:52:11.331903 45008 net.cpp:411] data_1 -> data
I0419 11:52:11.331996 45008 net.cpp:411] data_1 -> sim
I0419 11:52:11.332111 45008 image_data_layer.cpp:38] Opening file data/train1_full.txt
I0419 11:52:11.392004 45008 image_data_layer.cpp:53] A total of 14000 images.
I0419 11:52:11.758970 45008 image_data_layer.cpp:80] output data size: 100,3,227,227
I0419 11:52:11.882285 45008 net.cpp:150] Setting up data_1
I0419 11:52:11.882406 45008 net.cpp:157] Top shape: 100 3 227 227 (15458700)
I0419 11:52:11.882438 45008 net.cpp:157] Top shape: 100 (100)
I0419 11:52:11.882462 45008 net.cpp:165] Memory required for data: 61835200
I0419 11:52:11.882505 45008 layer_factory.hpp:77] Creating layer data_2
I0419 11:52:11.882553 45008 net.cpp:106] Creating Layer data_2
I0419 11:52:11.882582 45008 net.cpp:411] data_2 -> data_p
I0419 11:52:11.882625 45008 net.cpp:411] data_2 -> dummy_labels
I0419 11:52:11.882659 45008 image_data_layer.cpp:38] Opening file data/train2_full.txt
I0419 11:52:11.925134 45008 image_data_layer.cpp:53] A total of 14000 images.
I0419 11:52:11.933881 45008 image_data_layer.cpp:80] output data size: 100,3,227,227
I0419 11:52:12.052845 45008 net.cpp:150] Setting up data_2
I0419 11:52:12.052948 45008 net.cpp:157] Top shape: 100 3 227 227 (15458700)
I0419 11:52:12.052976 45008 net.cpp:157] Top shape: 100 (100)
I0419 11:52:12.052999 45008 net.cpp:165] Memory required for data: 123670400
I0419 11:52:12.053025 45008 layer_factory.hpp:77] Creating layer conv1
I0419 11:52:12.053102 45008 net.cpp:106] Creating Layer conv1
I0419 11:52:12.053131 45008 net.cpp:454] conv1 <- data
I0419 11:52:12.053174 45008 net.cpp:411] conv1 -> conv1
I0419 11:52:12.054914 45008 net.cpp:150] Setting up conv1
I0419 11:52:12.054955 45008 net.cpp:157] Top shape: 100 20 223 223 (99458000)
I0419 11:52:12.054978 45008 net.cpp:165] Memory required for data: 521502400
I0419 11:52:12.055030 45008 layer_factory.hpp:77] Creating layer pool1
I0419 11:52:12.055063 45008 net.cpp:106] Creating Layer pool1
I0419 11:52:12.055088 45008 net.cpp:454] pool1 <- conv1
I0419 11:52:12.055112 45008 net.cpp:411] pool1 -> pool1
I0419 11:52:12.055274 45008 net.cpp:150] Setting up pool1
I0419 11:52:12.055305 45008 net.cpp:157] Top shape: 100 20 112 112 (25088000)
I0419 11:52:12.055327 45008 net.cpp:165] Memory required for data: 621854400
I0419 11:52:12.055351 45008 layer_factory.hpp:77] Creating layer conv2
I0419 11:52:12.055385 45008 net.cpp:106] Creating Layer conv2
I0419 11:52:12.055423 45008 net.cpp:454] conv2 <- pool1
I0419 11:52:12.055471 45008 net.cpp:411] conv2 -> conv2
I0419 11:52:12.056581 45008 net.cpp:150] Setting up conv2
I0419 11:52:12.056637 45008 net.cpp:157] Top shape: 100 50 108 108 (58320000)
I0419 11:52:12.056666 45008 net.cpp:165] Memory required for data: 855134400
I0419 11:52:12.056710 45008 layer_factory.hpp:77] Creating layer pool2
I0419 11:52:12.056738 45008 net.cpp:106] Creating Layer pool2
I0419 11:52:12.056763 45008 net.cpp:454] pool2 <- conv2
I0419 11:52:12.056790 45008 net.cpp:411] pool2 -> pool2
I0419 11:52:12.056849 45008 net.cpp:150] Setting up pool2
I0419 11:52:12.056892 45008 net.cpp:157] Top shape: 100 50 54 54 (14580000)
I0419 11:52:12.056915 45008 net.cpp:165] Memory required for data: 913454400
I0419 11:52:12.056949 45008 layer_factory.hpp:77] Creating layer ip1
I0419 11:52:12.056995 45008 net.cpp:106] Creating Layer ip1
I0419 11:52:12.057020 45008 net.cpp:454] ip1 <- pool2
I0419 11:52:12.057046 45008 net.cpp:411] ip1 -> ip1
I0419 11:52:12.701078 45008 net.cpp:150] Setting up ip1
I0419 11:52:12.701225 45008 net.cpp:157] Top shape: 100 500 (50000)
I0419 11:52:12.701251 45008 net.cpp:165] Memory required for data: 913654400
I0419 11:52:12.701292 45008 layer_factory.hpp:77] Creating layer relu1
I0419 11:52:12.701325 45008 net.cpp:106] Creating Layer relu1
I0419 11:52:12.701349 45008 net.cpp:454] relu1 <- ip1
I0419 11:52:12.701381 45008 net.cpp:397] relu1 -> ip1 (in-place)
I0419 11:52:12.701432 45008 net.cpp:150] Setting up relu1
I0419 11:52:12.701458 45008 net.cpp:157] Top shape: 100 500 (50000)
I0419 11:52:12.701493 45008 net.cpp:165] Memory required for data: 913854400
I0419 11:52:12.701515 45008 layer_factory.hpp:77] Creating layer ip2
I0419 11:52:12.701561 45008 net.cpp:106] Creating Layer ip2
I0419 11:52:12.701586 45008 net.cpp:454] ip2 <- ip1
I0419 11:52:12.701625 45008 net.cpp:411] ip2 -> ip2
I0419 11:52:12.701813 45008 net.cpp:150] Setting up ip2
I0419 11:52:12.701859 45008 net.cpp:157] Top shape: 100 10 (1000)
I0419 11:52:12.701895 45008 net.cpp:165] Memory required for data: 913858400
I0419 11:52:12.701920 45008 layer_factory.hpp:77] Creating layer feat
I0419 11:52:12.701972 45008 net.cpp:106] Creating Layer feat
I0419 11:52:12.701995 45008 net.cpp:454] feat <- ip2
I0419 11:52:12.702023 45008 net.cpp:411] feat -> feat
I0419 11:52:12.702122 45008 net.cpp:150] Setting up feat
I0419 11:52:12.702167 45008 net.cpp:157] Top shape: 100 2 (200)
I0419 11:52:12.702194 45008 net.cpp:165] Memory required for data: 913859200
I0419 11:52:12.702239 45008 layer_factory.hpp:77] Creating layer conv1_p
I0419 11:52:12.702273 45008 net.cpp:106] Creating Layer conv1_p
I0419 11:52:12.702301 45008 net.cpp:454] conv1_p <- data_p
I0419 11:52:12.702327 45008 net.cpp:411] conv1_p -> conv1_p
I0419 11:52:12.702631 45008 net.cpp:150] Setting up conv1_p
I0419 11:52:12.702672 45008 net.cpp:157] Top shape: 100 20 223 223 (99458000)
I0419 11:52:12.702720 45008 net.cpp:165] Memory required for data: 1311691200
I0419 11:52:12.702746 45008 net.cpp:514] Sharing parameters 'conv1_w' owned by layer 'conv1', param index 0
I0419 11:52:12.702774 45008 net.cpp:514] Sharing parameters 'conv1_b' owned by layer 'conv1', param index 1
I0419 11:52:12.702798 45008 layer_factory.hpp:77] Creating layer pool1_p
I0419 11:52:12.702828 45008 net.cpp:106] Creating Layer pool1_p
I0419 11:52:12.702853 45008 net.cpp:454] pool1_p <- conv1_p
I0419 11:52:12.702882 45008 net.cpp:411] pool1_p -> pool1_p
I0419 11:52:12.702946 45008 net.cpp:150] Setting up pool1_p
I0419 11:52:12.702993 45008 net.cpp:157] Top shape: 100 20 112 112 (25088000)
I0419 11:52:12.703017 45008 net.cpp:165] Memory required for data: 1412043200
I0419 11:52:12.703054 45008 layer_factory.hpp:77] Creating layer conv2_p
I0419 11:52:12.703084 45008 net.cpp:106] Creating Layer conv2_p
I0419 11:52:12.703121 45008 net.cpp:454] conv2_p <- pool1_p
I0419 11:52:12.703156 45008 net.cpp:411] conv2_p -> conv2_p
I0419 11:52:12.703595 45008 net.cpp:150] Setting up conv2_p
I0419 11:52:12.704396 45008 net.cpp:157] Top shape: 100 50 108 108 (58320000)
I0419 11:52:12.704531 45008 net.cpp:165] Memory required for data: 1645323200
I0419 11:52:12.704633 45008 net.cpp:514] Sharing parameters 'conv2_w' owned by layer 'conv2', param index 0
I0419 11:52:12.704668 45008 net.cpp:514] Sharing parameters 'conv2_b' owned by layer 'conv2', param index 1
I0419 11:52:12.704694 45008 layer_factory.hpp:77] Creating layer pool2_p
I0419 11:52:12.704731 45008 net.cpp:106] Creating Layer pool2_p
I0419 11:52:12.704758 45008 net.cpp:454] pool2_p <- conv2_p
I0419 11:52:12.704797 45008 net.cpp:411] pool2_p -> pool2_p
I0419 11:52:12.704919 45008 net.cpp:150] Setting up pool2_p
I0419 11:52:12.704967 45008 net.cpp:157] Top shape: 100 50 54 54 (14580000)
I0419 11:52:12.705081 45008 net.cpp:165] Memory required for data: 1703643200
I0419 11:52:12.705139 45008 layer_factory.hpp:77] Creating layer ip1_p
I0419 11:52:12.705199 45008 net.cpp:106] Creating Layer ip1_p
I0419 11:52:12.705229 45008 net.cpp:454] ip1_p <- pool2_p
I0419 11:52:12.705265 45008 net.cpp:411] ip1_p -> ip1_p
I0419 11:52:13.339985 45008 net.cpp:150] Setting up ip1_p
I0419 11:52:13.340075 45008 net.cpp:157] Top shape: 100 500 (50000)
I0419 11:52:13.340101 45008 net.cpp:165] Memory required for data: 1703843200
I0419 11:52:13.340129 45008 net.cpp:514] Sharing parameters 'ip1_w' owned by layer 'ip1', param index 0
I0419 11:52:13.340157 45008 net.cpp:514] Sharing parameters 'ip1_b' owned by layer 'ip1', param index 1
I0419 11:52:13.340180 45008 layer_factory.hpp:77] Creating layer relu1_p
I0419 11:52:13.340214 45008 net.cpp:106] Creating Layer relu1_p
I0419 11:52:13.340242 45008 net.cpp:454] relu1_p <- ip1_p
I0419 11:52:13.340271 45008 net.cpp:397] relu1_p -> ip1_p (in-place)
I0419 11:52:13.340308 45008 net.cpp:150] Setting up relu1_p
I0419 11:52:13.340334 45008 net.cpp:157] Top shape: 100 500 (50000)
I0419 11:52:13.340356 45008 net.cpp:165] Memory required for data: 1704043200
I0419 11:52:13.340383 45008 layer_factory.hpp:77] Creating layer ip2_p
I0419 11:52:13.340420 45008 net.cpp:106] Creating Layer ip2_p
I0419 11:52:13.340443 45008 net.cpp:454] ip2_p <- ip1_p
I0419 11:52:13.340471 45008 net.cpp:411] ip2_p -> ip2_p
I0419 11:52:13.340629 45008 net.cpp:150] Setting up ip2_p
I0419 11:52:13.340663 45008 net.cpp:157] Top shape: 100 10 (1000)
I0419 11:52:13.340687 45008 net.cpp:165] Memory required for data: 1704047200
I0419 11:52:13.340715 45008 net.cpp:514] Sharing parameters 'ip2_w' owned by layer 'ip2', param index 0
I0419 11:52:13.340742 45008 net.cpp:514] Sharing parameters 'ip2_b' owned by layer 'ip2', param index 1
I0419 11:52:13.340765 45008 layer_factory.hpp:77] Creating layer feat_p
I0419 11:52:13.340791 45008 net.cpp:106] Creating Layer feat_p
I0419 11:52:13.340814 45008 net.cpp:454] feat_p <- ip2_p
I0419 11:52:13.340854 45008 net.cpp:411] feat_p -> feat_p
I0419 11:52:13.341001 45008 net.cpp:150] Setting up feat_p
I0419 11:52:13.341037 45008 net.cpp:157] Top shape: 100 2 (200)
I0419 11:52:13.341061 45008 net.cpp:165] Memory required for data: 1704048000
I0419 11:52:13.341086 45008 net.cpp:514] Sharing parameters 'feat_w' owned by layer 'feat', param index 0
I0419 11:52:13.341112 45008 net.cpp:514] Sharing parameters 'feat_b' owned by layer 'feat', param index 1
I0419 11:52:13.341137 45008 layer_factory.hpp:77] Creating layer loss
I0419 11:52:13.341181 45008 net.cpp:106] Creating Layer loss
…
