…
I0424 22:50:55.789793 13841 net.cpp:322] The NetState phase (0) differed from the phase (1) specified by a rule in layer data_2
I0424 22:50:55.789983 13841 net.cpp:49] Initializing net from parameters: 
name: "pirc_siamese_train_test"
state {
  phase: TRAIN
}
layer {
  name: "data_1"
  type: "ImageData"
  top: "data"
  top: "sim"
  include {
    phase: TRAIN
  }
  image_data_param {
    source: "data/train1_ss_hardneg.txt"
    batch_size: 100
  }
}
layer {
  name: "data_2"
  type: "ImageData"
  top: "data_p"
  top: "dummy_labels"
  include {
    phase: TRAIN
  }
  image_data_param {
    source: "data/train2_ss_hardneg.txt"
    batch_size: 100
  }
}
layer {
  name: "conv1"
  type: "Convolution"
  bottom: "data"
  top: "conv1"
  param {
    name: "conv1_w"
    lr_mult: 1
  }
  param {
    name: "conv1_b"
    lr_mult: 2
  }
  convolution_param {
    num_output: 20
    kernel_size: 5
    stride: 1
    weight_filler {
      type: "xavier"
    }
    bias_filler {
      type: "constant"
    }
  }
}
layer {
  name: "pool1"
  type: "Pooling"
  bottom: "conv1"
  top: "pool1"
  pooling_param {
    pool: MAX
    kernel_size: 2
    stride: 2
  }
}
layer {
  name: "conv2"
  type: "Convolution"
  bottom: "pool1"
  top: "conv2"
  param {
    name: "conv2_w"
    lr_mult: 1
  }
  param {
    name: "conv2_b"
    lr_mult: 2
  }
  convolution_param {
    num_output: 50
    kernel_size: 5
    stride: 1
    weight_filler {
      type: "xavier"
    }
    bias_filler {
      type: "constant"
    }
  }
}
layer {
  name: "pool2"
  type: "Pooling"
  bottom: "conv2"
  top: "pool2"
  pooling_param {
    pool: MAX
    kernel_size: 2
    stride: 2
  }
}
layer {
  name: "ip1"
  type: "InnerProduct"
  bottom: "pool2"
  top: "ip1"
  param {
    name: "ip1_w"
    lr_mult: 1
  }
  param {
    name: "ip1_b"
    lr_mult: 2
  }
  inner_product_param {
    num_output: 500
    weight_filler {
      type: "xavier"
    }
    bias_filler {
      type: "constant"
    }
  }
}
layer {
  name: "relu1"
  type: "ReLU"
  bottom: "ip1"
  top: "ip1"
}
layer {
  name: "ip2"
  type: "InnerProduct"
  bottom: "ip1"
  top: "ip2"
  param {
    name: "ip2_w"
    lr_mult: 1
  }
  param {
    name: "ip2_b"
    lr_mult: 2
  }
  inner_product_param {
    num_output: 10
    weight_filler {
      type: "xavier"
    }
    bias_filler {
      type: "constant"
    }
  }
}
layer {
  name: "feat"
  type: "InnerProduct"
  bottom: "ip2"
  top: "feat"
  param {
    name: "feat_w"
    lr_mult: 1
  }
  param {
    name: "feat_b"
    lr_mult: 2
  }
  inner_product_param {
    num_output: 2
    weight_filler {
      type: "xavier"
    }
    bias_filler {
      type: "constant"
    }
  }
}
layer {
  name: "conv1_p"
  type: "Convolution"
  bottom: "data_p"
  top: "conv1_p"
  param {
    name: "conv1_w"
    lr_mult: 1
  }
  param {
    name: "conv1_b"
    lr_mult: 2
  }
  convolution_param {
    num_output: 20
    kernel_size: 5
    stride: 1
    weight_filler {
      type: "xavier"
    }
    bias_filler {
      type: "constant"
    }
  }
}
layer {
  name: "pool1_p"
  type: "Pooling"
  bottom: "conv1_p"
  top: "pool1_p"
  pooling_param {
    pool: MAX
    kernel_size: 2
    stride: 2
  }
}
layer {
  name: "conv2_p"
  type: "Convolution"
  bottom: "pool1_p"
  top: "conv2_p"
  param {
    name: "conv2_w"
    lr_mult: 1
  }
  param {
    name: "conv2_b"
    lr_mult: 2
  }
  convolution_param {
    num_output: 50
    kernel_size: 5
    stride: 1
    weight_filler {
      type: "xavier"
    }
    bias_filler {
      type: "constant"
    }
  }
}
layer {
  name: "pool2_p"
  type: "Pooling"
  bottom: "conv2_p"
  top: "pool2_p"
  pooling_param {
    pool: MAX
    kernel_size: 2
    stride: 2
  }
}
layer {
  name: "ip1_p"
  type: "InnerProduct"
  bottom: "pool2_p"
  top: "ip1_p"
  param {
    name: "ip1_w"
    lr_mult: 1
  }
  param {
    name: "ip1_b"
    lr_mult: 2
  }
  inner_product_param {
    num_output: 500
    weight_filler {
      type: "xavier"
    }
    bias_filler {
      type: "constant"
    }
  }
}
layer {
  name: "relu1_p"
  type: "ReLU"
  bottom: "ip1_p"
  top: "ip1_p"
}
layer {
  name: "ip2_p"
  type: "InnerProduct"
  bottom: "ip1_p"
  top: "ip2_p"
  param {
    name: "ip2_w"
    lr_mult: 1
  }
  param {
    name: "ip2_b"
    lr_mult: 2
  }
  inner_product_param {
    num_output: 10
    weight_filler {
      type: "xavier"
    }
    bias_filler {
      type: "constant"
    }
  }
}
layer {
  name: "feat_p"
  type: "InnerProduct"
  bottom: "ip2_p"
  top: "feat_p"
  param {
    name: "feat_w"
    lr_mult: 1
  }
  param {
    name: "feat_b"
    lr_mult: 2
  }
  inner_product_param {
    num_output: 2
    weight_filler {
      type: "xavier"
    }
    bias_filler {
      type: "constant"
    }
  }
}
layer {
  name: "loss"
  type: "ContrastiveLoss"
  bottom: "feat"
  bottom: "feat_p"
  bottom: "sim"
  top: "loss"
  contrastive_loss_param {
    margin: 1
  }
}
I0424 22:50:55.790243 13841 layer_factory.hpp:77] Creating layer data_1
I0424 22:50:55.790428 13841 net.cpp:106] Creating Layer data_1
I0424 22:50:55.790472 13841 net.cpp:411] data_1 -> data
I0424 22:50:55.790557 13841 net.cpp:411] data_1 -> sim
I0424 22:50:55.790668 13841 image_data_layer.cpp:38] Opening file data/train1_ss_hardneg.txt
I0424 22:50:55.827229 13841 image_data_layer.cpp:53] A total of 49000 images.
I0424 22:50:55.984763 13841 image_data_layer.cpp:80] output data size: 100,3,227,227
I0424 22:50:56.130519 13841 net.cpp:150] Setting up data_1
I0424 22:50:56.130607 13841 net.cpp:157] Top shape: 100 3 227 227 (15458700)
I0424 22:50:56.130638 13841 net.cpp:157] Top shape: 100 (100)
I0424 22:50:56.130663 13841 net.cpp:165] Memory required for data: 61835200
I0424 22:50:56.130692 13841 layer_factory.hpp:77] Creating layer data_2
I0424 22:50:56.130743 13841 net.cpp:106] Creating Layer data_2
I0424 22:50:56.130771 13841 net.cpp:411] data_2 -> data_p
I0424 22:50:56.130810 13841 net.cpp:411] data_2 -> dummy_labels
I0424 22:50:56.130842 13841 image_data_layer.cpp:38] Opening file data/train2_ss_hardneg.txt
I0424 22:50:56.156782 13841 image_data_layer.cpp:53] A total of 49000 images.
I0424 22:50:56.161674 13841 image_data_layer.cpp:80] output data size: 100,3,227,227
I0424 22:50:56.282016 13841 net.cpp:150] Setting up data_2
I0424 22:50:56.282137 13841 net.cpp:157] Top shape: 100 3 227 227 (15458700)
I0424 22:50:56.282191 13841 net.cpp:157] Top shape: 100 (100)
I0424 22:50:56.282215 13841 net.cpp:165] Memory required for data: 123670400
I0424 22:50:56.282243 13841 layer_factory.hpp:77] Creating layer conv1
I0424 22:50:56.282335 13841 net.cpp:106] Creating Layer conv1
I0424 22:50:56.282380 13841 net.cpp:454] conv1 <- data
I0424 22:50:56.282435 13841 net.cpp:411] conv1 -> conv1
I0424 22:50:56.284329 13841 net.cpp:150] Setting up conv1
I0424 22:50:56.284376 13841 net.cpp:157] Top shape: 100 20 223 223 (99458000)
I0424 22:50:56.284404 13841 net.cpp:165] Memory required for data: 521502400
I0424 22:50:56.284461 13841 layer_factory.hpp:77] Creating layer pool1
I0424 22:50:56.284497 13841 net.cpp:106] Creating Layer pool1
I0424 22:50:56.284536 13841 net.cpp:454] pool1 <- conv1
I0424 22:50:56.284574 13841 net.cpp:411] pool1 -> pool1
I0424 22:50:56.284766 13841 net.cpp:150] Setting up pool1
I0424 22:50:56.284804 13841 net.cpp:157] Top shape: 100 20 112 112 (25088000)
I0424 22:50:56.284833 13841 net.cpp:165] Memory required for data: 621854400
I0424 22:50:56.284862 13841 layer_factory.hpp:77] Creating layer conv2
I0424 22:50:56.284896 13841 net.cpp:106] Creating Layer conv2
I0424 22:50:56.284950 13841 net.cpp:454] conv2 <- pool1
I0424 22:50:56.285017 13841 net.cpp:411] conv2 -> conv2
I0424 22:50:56.286099 13841 net.cpp:150] Setting up conv2
I0424 22:50:56.286142 13841 net.cpp:157] Top shape: 100 50 108 108 (58320000)
I0424 22:50:56.286169 13841 net.cpp:165] Memory required for data: 855134400
I0424 22:50:56.286196 13841 layer_factory.hpp:77] Creating layer pool2
I0424 22:50:56.286226 13841 net.cpp:106] Creating Layer pool2
I0424 22:50:56.286270 13841 net.cpp:454] pool2 <- conv2
I0424 22:50:56.286300 13841 net.cpp:411] pool2 -> pool2
I0424 22:50:56.292358 13841 net.cpp:150] Setting up pool2
I0424 22:50:56.292407 13841 net.cpp:157] Top shape: 100 50 54 54 (14580000)
I0424 22:50:56.292430 13841 net.cpp:165] Memory required for data: 913454400
I0424 22:50:56.292454 13841 layer_factory.hpp:77] Creating layer ip1
I0424 22:50:56.292505 13841 net.cpp:106] Creating Layer ip1
I0424 22:50:56.292531 13841 net.cpp:454] ip1 <- pool2
I0424 22:50:56.292559 13841 net.cpp:411] ip1 -> ip1
I0424 22:50:56.956822 13841 net.cpp:150] Setting up ip1
I0424 22:50:56.956945 13841 net.cpp:157] Top shape: 100 500 (50000)
I0424 22:50:56.956971 13841 net.cpp:165] Memory required for data: 913654400
I0424 22:50:56.957005 13841 layer_factory.hpp:77] Creating layer relu1
I0424 22:50:56.957038 13841 net.cpp:106] Creating Layer relu1
I0424 22:50:56.957062 13841 net.cpp:454] relu1 <- ip1
I0424 22:50:56.957088 13841 net.cpp:397] relu1 -> ip1 (in-place)
I0424 22:50:56.957124 13841 net.cpp:150] Setting up relu1
I0424 22:50:56.957150 13841 net.cpp:157] Top shape: 100 500 (50000)
I0424 22:50:56.957171 13841 net.cpp:165] Memory required for data: 913854400
I0424 22:50:56.957192 13841 layer_factory.hpp:77] Creating layer ip2
I0424 22:50:56.957222 13841 net.cpp:106] Creating Layer ip2
I0424 22:50:56.957247 13841 net.cpp:454] ip2 <- ip1
I0424 22:50:56.957278 13841 net.cpp:411] ip2 -> ip2
I0424 22:50:56.957429 13841 net.cpp:150] Setting up ip2
I0424 22:50:56.957461 13841 net.cpp:157] Top shape: 100 10 (1000)
I0424 22:50:56.957484 13841 net.cpp:165] Memory required for data: 913858400
I0424 22:50:56.957509 13841 layer_factory.hpp:77] Creating layer feat
I0424 22:50:56.957535 13841 net.cpp:106] Creating Layer feat
I0424 22:50:56.957558 13841 net.cpp:454] feat <- ip2
I0424 22:50:56.957583 13841 net.cpp:411] feat -> feat
I0424 22:50:56.957687 13841 net.cpp:150] Setting up feat
I0424 22:50:56.957718 13841 net.cpp:157] Top shape: 100 2 (200)
I0424 22:50:56.957741 13841 net.cpp:165] Memory required for data: 913859200
I0424 22:50:56.957767 13841 layer_factory.hpp:77] Creating layer conv1_p
I0424 22:50:56.957799 13841 net.cpp:106] Creating Layer conv1_p
I0424 22:50:56.957823 13841 net.cpp:454] conv1_p <- data_p
I0424 22:50:56.957850 13841 net.cpp:411] conv1_p -> conv1_p
I0424 22:50:56.958109 13841 net.cpp:150] Setting up conv1_p
I0424 22:50:56.958144 13841 net.cpp:157] Top shape: 100 20 223 223 (99458000)
I0424 22:50:56.958166 13841 net.cpp:165] Memory required for data: 1311691200
I0424 22:50:56.958189 13841 net.cpp:514] Sharing parameters 'conv1_w' owned by layer 'conv1', param index 0
I0424 22:50:56.958211 13841 net.cpp:514] Sharing parameters 'conv1_b' owned by layer 'conv1', param index 1
I0424 22:50:56.958233 13841 layer_factory.hpp:77] Creating layer pool1_p
I0424 22:50:56.958266 13841 net.cpp:106] Creating Layer pool1_p
I0424 22:50:56.958292 13841 net.cpp:454] pool1_p <- conv1_p
I0424 22:50:56.958317 13841 net.cpp:411] pool1_p -> pool1_p
I0424 22:50:56.958375 13841 net.cpp:150] Setting up pool1_p
I0424 22:50:56.958415 13841 net.cpp:157] Top shape: 100 20 112 112 (25088000)
I0424 22:50:56.958438 13841 net.cpp:165] Memory required for data: 1412043200
I0424 22:50:56.958459 13841 layer_factory.hpp:77] Creating layer conv2_p
I0424 22:50:56.958487 13841 net.cpp:106] Creating Layer conv2_p
I0424 22:50:56.958509 13841 net.cpp:454] conv2_p <- pool1_p
I0424 22:50:56.958537 13841 net.cpp:411] conv2_p -> conv2_p
I0424 22:50:56.958909 13841 net.cpp:150] Setting up conv2_p
I0424 22:50:56.958942 13841 net.cpp:157] Top shape: 100 50 108 108 (58320000)
I0424 22:50:56.958992 13841 net.cpp:165] Memory required for data: 1645323200
I0424 22:50:56.959046 13841 net.cpp:514] Sharing parameters 'conv2_w' owned by layer 'conv2', param index 0
I0424 22:50:56.959071 13841 net.cpp:514] Sharing parameters 'conv2_b' owned by layer 'conv2', param index 1
I0424 22:50:56.959121 13841 layer_factory.hpp:77] Creating layer pool2_p
I0424 22:50:56.959153 13841 net.cpp:106] Creating Layer pool2_p
I0424 22:50:56.959209 13841 net.cpp:454] pool2_p <- conv2_p
I0424 22:50:56.959241 13841 net.cpp:411] pool2_p -> pool2_p
I0424 22:50:56.959311 13841 net.cpp:150] Setting up pool2_p
I0424 22:50:56.959345 13841 net.cpp:157] Top shape: 100 50 54 54 (14580000)
I0424 22:50:56.959369 13841 net.cpp:165] Memory required for data: 1703643200
I0424 22:50:56.959393 13841 layer_factory.hpp:77] Creating layer ip1_p
I0424 22:50:56.959421 13841 net.cpp:106] Creating Layer ip1_p
I0424 22:50:56.959447 13841 net.cpp:454] ip1_p <- pool2_p
I0424 22:50:56.959476 13841 net.cpp:411] ip1_p -> ip1_p
I0424 22:50:57.609894 13841 net.cpp:150] Setting up ip1_p
I0424 22:50:57.609972 13841 net.cpp:157] Top shape: 100 500 (50000)
I0424 22:50:57.610000 13841 net.cpp:165] Memory required for data: 1703843200
I0424 22:50:57.610031 13841 net.cpp:514] Sharing parameters 'ip1_w' owned by layer 'ip1', param index 0
I0424 22:50:57.610060 13841 net.cpp:514] Sharing parameters 'ip1_b' owned by layer 'ip1', param index 1
I0424 22:50:57.610087 13841 layer_factory.hpp:77] Creating layer relu1_p
I0424 22:50:57.610118 13841 net.cpp:106] Creating Layer relu1_p
I0424 22:50:57.610144 13841 net.cpp:454] relu1_p <- ip1_p
I0424 22:50:57.610177 13841 net.cpp:397] relu1_p -> ip1_p (in-place)
I0424 22:50:57.610214 13841 net.cpp:150] Setting up relu1_p
I0424 22:50:57.610244 13841 net.cpp:157] Top shape: 100 500 (50000)
I0424 22:50:57.610273 13841 net.cpp:165] Memory required for data: 1704043200
I0424 22:50:57.610299 13841 layer_factory.hpp:77] Creating layer ip2_p
I0424 22:50:57.610337 13841 net.cpp:106] Creating Layer ip2_p
I0424 22:50:57.610363 13841 net.cpp:454] ip2_p <- ip1_p
I0424 22:50:57.610394 13841 net.cpp:411] ip2_p -> ip2_p
I0424 22:50:57.610577 13841 net.cpp:150] Setting up ip2_p
I0424 22:50:57.610632 13841 net.cpp:157] Top shape: 100 10 (1000)
I0424 22:50:57.610656 13841 net.cpp:165] Memory required for data: 1704047200
I0424 22:50:57.610687 13841 net.cpp:514] Sharing parameters 'ip2_w' owned by layer 'ip2', param index 0
I0424 22:50:57.610715 13841 net.cpp:514] Sharing parameters 'ip2_b' owned by layer 'ip2', param index 1
I0424 22:50:57.610739 13841 layer_factory.hpp:77] Creating layer feat_p
I0424 22:50:57.610766 13841 net.cpp:106] Creating Layer feat_p
I0424 22:50:57.610790 13841 net.cpp:454] feat_p <- ip2_p
I0424 22:50:57.610821 13841 net.cpp:411] feat_p -> feat_p
I0424 22:50:57.610941 13841 net.cpp:150] Setting up feat_p
I0424 22:50:57.610976 13841 net.cpp:157] Top shape: 100 2 (200)
I0424 22:50:57.611002 13841 net.cpp:165] Memory required for data: 1704048000
I0424 22:50:57.611027 13841 net.cpp:514] Sharing parameters 'feat_w' owned by layer 'feat', param index 0
I0424 22:50:57.611052 13841 net.cpp:514] Sharing parameters 'feat_b' owned by layer 'feat', param index 1
I0424 22:50:57.611079 13841 layer_factory.hpp:77] Creating layer loss
I0424 22:50:57.611127 13841 net.cpp:106] Creating Layer loss
…
