…
I0416 12:37:17.204360 45273 net.cpp:322] The NetState phase (0) differed from the phase (1) specified by a rule in layer data_2
I0416 12:37:17.204542 45273 net.cpp:49] Initializing net from parameters: 
name: "pirc_siamese_train_test"
state {
  phase: TRAIN
}
layer {
  name: "data_1"
  type: "ImageData"
  top: "data"
  top: "sim"
  include {
    phase: TRAIN
  }
  image_data_param {
    source: "data/train1_ss.txt"
    batch_size: 100
  }
}
layer {
  name: "data_2"
  type: "ImageData"
  top: "data_p"
  top: "dummy_labels"
  include {
    phase: TRAIN
  }
  image_data_param {
    source: "data/train2_ss.txt"
    batch_size: 100
  }
}
layer {
  name: "conv1"
  type: "Convolution"
  bottom: "data"
  top: "conv1"
  param {
    name: "conv1_w"
    lr_mult: 1
  }
  param {
    name: "conv1_b"
    lr_mult: 2
  }
  convolution_param {
    num_output: 20
    kernel_size: 5
    stride: 1
    weight_filler {
      type: "xavier"
    }
    bias_filler {
      type: "constant"
    }
  }
}
layer {
  name: "pool1"
  type: "Pooling"
  bottom: "conv1"
  top: "pool1"
  pooling_param {
    pool: MAX
    kernel_size: 2
    stride: 2
  }
}
layer {
  name: "conv2"
  type: "Convolution"
  bottom: "pool1"
  top: "conv2"
  param {
    name: "conv2_w"
    lr_mult: 1
  }
  param {
    name: "conv2_b"
    lr_mult: 2
  }
  convolution_param {
    num_output: 50
    kernel_size: 5
    stride: 1
    weight_filler {
      type: "xavier"
    }
    bias_filler {
      type: "constant"
    }
  }
}
layer {
  name: "pool2"
  type: "Pooling"
  bottom: "conv2"
  top: "pool2"
  pooling_param {
    pool: MAX
    kernel_size: 2
    stride: 2
  }
}
layer {
  name: "ip1"
  type: "InnerProduct"
  bottom: "pool2"
  top: "ip1"
  param {
    name: "ip1_w"
    lr_mult: 1
  }
  param {
    name: "ip1_b"
    lr_mult: 2
  }
  inner_product_param {
    num_output: 500
    weight_filler {
      type: "xavier"
    }
    bias_filler {
      type: "constant"
    }
  }
}
layer {
  name: "relu1"
  type: "ReLU"
  bottom: "ip1"
  top: "ip2"
}
layer {
  name: "feat"
  type: "InnerProduct"
  bottom: "ip2"
  top: "feat"
  param {
    name: "feat_w"
    lr_mult: 1
  }
  param {
    name: "feat_b"
    lr_mult: 2
  }
  inner_product_param {
    num_output: 2
    weight_filler {
      type: "xavier"
    }
    bias_filler {
      type: "constant"
    }
  }
}
layer {
  name: "conv1_p"
  type: "Convolution"
  bottom: "data_p"
  top: "conv1_p"
  param {
    name: "conv1_w"
    lr_mult: 1
  }
  param {
    name: "conv1_b"
    lr_mult: 2
  }
  convolution_param {
    num_output: 20
    kernel_size: 5
    stride: 1
    weight_filler {
      type: "xavier"
    }
    bias_filler {
      type: "constant"
    }
  }
}
layer {
  name: "pool1_p"
  type: "Pooling"
  bottom: "conv1_p"
  top: "pool1_p"
  pooling_param {
    pool: MAX
    kernel_size: 2
    stride: 2
  }
}
layer {
  name: "conv2_p"
  type: "Convolution"
  bottom: "pool1_p"
  top: "conv2_p"
  param {
    name: "conv2_w"
    lr_mult: 1
  }
  param {
    name: "conv2_b"
    lr_mult: 2
  }
  convolution_param {
    num_output: 50
    kernel_size: 5
    stride: 1
    weight_filler {
      type: "xavier"
    }
    bias_filler {
      type: "constant"
    }
  }
}
layer {
  name: "pool2_p"
  type: "Pooling"
  bottom: "conv2_p"
  top: "pool2_p"
  pooling_param {
    pool: MAX
    kernel_size: 2
    stride: 2
  }
}
layer {
  name: "ip1_p"
  type: "InnerProduct"
  bottom: "pool2_p"
  top: "ip1_p"
  param {
    name: "ip1_w"
    lr_mult: 1
  }
  param {
    name: "ip1_b"
    lr_mult: 2
  }
  inner_product_param {
    num_output: 500
    weight_filler {
      type: "xavier"
    }
    bias_filler {
      type: "constant"
    }
  }
}
layer {
  name: "relu1_p"
  type: "ReLU"
  bottom: "ip1_p"
  top: "ip2_p"
}
layer {
  name: "feat_p"
  type: "InnerProduct"
  bottom: "ip2_p"
  top: "feat_p"
  param {
    name: "feat_w"
    lr_mult: 1
  }
  param {
    name: "feat_b"
    lr_mult: 2
  }
  inner_product_param {
    num_output: 2
    weight_filler {
      type: "xavier"
    }
    bias_filler {
      type: "constant"
    }
  }
}
layer {
  name: "loss"
  type: "ContrastiveLoss"
  bottom: "feat"
  bottom: "feat_p"
  bottom: "sim"
  top: "loss"
  contrastive_loss_param {
    margin: 1
  }
}
I0416 12:37:17.204819 45273 layer_factory.hpp:77] Creating layer data_1
I0416 12:37:17.204998 45273 net.cpp:106] Creating Layer data_1
I0416 12:37:17.205041 45273 net.cpp:411] data_1 -> data
I0416 12:37:17.205127 45273 net.cpp:411] data_1 -> sim
I0416 12:37:17.205240 45273 image_data_layer.cpp:38] Opening file data/train1_ss.txt
I0416 12:37:17.220059 45273 image_data_layer.cpp:53] A total of 14000 images.
I0416 12:37:17.296809 45273 image_data_layer.cpp:80] output data size: 100,3,227,227
I0416 12:37:17.420958 45273 net.cpp:150] Setting up data_1
I0416 12:37:17.421049 45273 net.cpp:157] Top shape: 100 3 227 227 (15458700)
I0416 12:37:17.421080 45273 net.cpp:157] Top shape: 100 (100)
I0416 12:37:17.421104 45273 net.cpp:165] Memory required for data: 61835200
I0416 12:37:17.421133 45273 layer_factory.hpp:77] Creating layer data_2
I0416 12:37:17.421188 45273 net.cpp:106] Creating Layer data_2
I0416 12:37:17.421216 45273 net.cpp:411] data_2 -> data_p
I0416 12:37:17.421257 45273 net.cpp:411] data_2 -> dummy_labels
I0416 12:37:17.421294 45273 image_data_layer.cpp:38] Opening file data/train2_ss.txt
I0416 12:37:17.432420 45273 image_data_layer.cpp:53] A total of 14000 images.
I0416 12:37:17.438524 45273 image_data_layer.cpp:80] output data size: 100,3,227,227
I0416 12:37:17.561964 45273 net.cpp:150] Setting up data_2
I0416 12:37:17.562058 45273 net.cpp:157] Top shape: 100 3 227 227 (15458700)
I0416 12:37:17.562086 45273 net.cpp:157] Top shape: 100 (100)
I0416 12:37:17.562109 45273 net.cpp:165] Memory required for data: 123670400
I0416 12:37:17.562134 45273 layer_factory.hpp:77] Creating layer conv1
I0416 12:37:17.562211 45273 net.cpp:106] Creating Layer conv1
I0416 12:37:17.562253 45273 net.cpp:454] conv1 <- data
I0416 12:37:17.562314 45273 net.cpp:411] conv1 -> conv1
I0416 12:37:17.564085 45273 net.cpp:150] Setting up conv1
I0416 12:37:17.564137 45273 net.cpp:157] Top shape: 100 20 223 223 (99458000)
I0416 12:37:17.564163 45273 net.cpp:165] Memory required for data: 521502400
I0416 12:37:17.564241 45273 layer_factory.hpp:77] Creating layer pool1
I0416 12:37:17.564275 45273 net.cpp:106] Creating Layer pool1
I0416 12:37:17.564321 45273 net.cpp:454] pool1 <- conv1
I0416 12:37:17.564352 45273 net.cpp:411] pool1 -> pool1
I0416 12:37:17.564545 45273 net.cpp:150] Setting up pool1
I0416 12:37:17.564580 45273 net.cpp:157] Top shape: 100 20 112 112 (25088000)
I0416 12:37:17.564605 45273 net.cpp:165] Memory required for data: 621854400
I0416 12:37:17.564630 45273 layer_factory.hpp:77] Creating layer conv2
I0416 12:37:17.564663 45273 net.cpp:106] Creating Layer conv2
I0416 12:37:17.564693 45273 net.cpp:454] conv2 <- pool1
I0416 12:37:17.564723 45273 net.cpp:411] conv2 -> conv2
I0416 12:37:17.565769 45273 net.cpp:150] Setting up conv2
I0416 12:37:17.565817 45273 net.cpp:157] Top shape: 100 50 108 108 (58320000)
I0416 12:37:17.565863 45273 net.cpp:165] Memory required for data: 855134400
I0416 12:37:17.565902 45273 layer_factory.hpp:77] Creating layer pool2
I0416 12:37:17.565932 45273 net.cpp:106] Creating Layer pool2
I0416 12:37:17.565955 45273 net.cpp:454] pool2 <- conv2
I0416 12:37:17.565982 45273 net.cpp:411] pool2 -> pool2
I0416 12:37:17.566040 45273 net.cpp:150] Setting up pool2
I0416 12:37:17.566084 45273 net.cpp:157] Top shape: 100 50 54 54 (14580000)
I0416 12:37:17.566133 45273 net.cpp:165] Memory required for data: 913454400
I0416 12:37:17.566200 45273 layer_factory.hpp:77] Creating layer ip1
I0416 12:37:17.566274 45273 net.cpp:106] Creating Layer ip1
I0416 12:37:17.566314 45273 net.cpp:454] ip1 <- pool2
I0416 12:37:17.566349 45273 net.cpp:411] ip1 -> ip1
I0416 12:37:18.268386 45273 net.cpp:150] Setting up ip1
I0416 12:37:18.268486 45273 net.cpp:157] Top shape: 100 500 (50000)
I0416 12:37:18.268515 45273 net.cpp:165] Memory required for data: 913654400
I0416 12:37:18.268553 45273 layer_factory.hpp:77] Creating layer relu1
I0416 12:37:18.268600 45273 net.cpp:106] Creating Layer relu1
I0416 12:37:18.268636 45273 net.cpp:454] relu1 <- ip1
I0416 12:37:18.268678 45273 net.cpp:411] relu1 -> ip2
I0416 12:37:18.268733 45273 net.cpp:150] Setting up relu1
I0416 12:37:18.268765 45273 net.cpp:157] Top shape: 100 500 (50000)
I0416 12:37:18.268790 45273 net.cpp:165] Memory required for data: 913854400
I0416 12:37:18.268812 45273 layer_factory.hpp:77] Creating layer feat
I0416 12:37:18.268843 45273 net.cpp:106] Creating Layer feat
I0416 12:37:18.268868 45273 net.cpp:454] feat <- ip2
I0416 12:37:18.268896 45273 net.cpp:411] feat -> feat
I0416 12:37:18.269011 45273 net.cpp:150] Setting up feat
I0416 12:37:18.269043 45273 net.cpp:157] Top shape: 100 2 (200)
I0416 12:37:18.269068 45273 net.cpp:165] Memory required for data: 913855200
I0416 12:37:18.269093 45273 layer_factory.hpp:77] Creating layer conv1_p
I0416 12:37:18.269127 45273 net.cpp:106] Creating Layer conv1_p
I0416 12:37:18.269152 45273 net.cpp:454] conv1_p <- data_p
I0416 12:37:18.269181 45273 net.cpp:411] conv1_p -> conv1_p
I0416 12:37:18.269477 45273 net.cpp:150] Setting up conv1_p
I0416 12:37:18.269515 45273 net.cpp:157] Top shape: 100 20 223 223 (99458000)
I0416 12:37:18.269551 45273 net.cpp:165] Memory required for data: 1311687200
I0416 12:37:18.269577 45273 net.cpp:514] Sharing parameters 'conv1_w' owned by layer 'conv1', param index 0
I0416 12:37:18.269604 45273 net.cpp:514] Sharing parameters 'conv1_b' owned by layer 'conv1', param index 1
I0416 12:37:18.269629 45273 layer_factory.hpp:77] Creating layer pool1_p
I0416 12:37:18.269655 45273 net.cpp:106] Creating Layer pool1_p
I0416 12:37:18.269688 45273 net.cpp:454] pool1_p <- conv1_p
I0416 12:37:18.269717 45273 net.cpp:411] pool1_p -> pool1_p
I0416 12:37:18.269778 45273 net.cpp:150] Setting up pool1_p
I0416 12:37:18.269811 45273 net.cpp:157] Top shape: 100 20 112 112 (25088000)
I0416 12:37:18.269835 45273 net.cpp:165] Memory required for data: 1412039200
I0416 12:37:18.269857 45273 layer_factory.hpp:77] Creating layer conv2_p
I0416 12:37:18.269888 45273 net.cpp:106] Creating Layer conv2_p
I0416 12:37:18.269914 45273 net.cpp:454] conv2_p <- pool1_p
I0416 12:37:18.269944 45273 net.cpp:411] conv2_p -> conv2_p
I0416 12:37:18.270335 45273 net.cpp:150] Setting up conv2_p
I0416 12:37:18.270370 45273 net.cpp:157] Top shape: 100 50 108 108 (58320000)
I0416 12:37:18.270398 45273 net.cpp:165] Memory required for data: 1645319200
I0416 12:37:18.270422 45273 net.cpp:514] Sharing parameters 'conv2_w' owned by layer 'conv2', param index 0
I0416 12:37:18.270447 45273 net.cpp:514] Sharing parameters 'conv2_b' owned by layer 'conv2', param index 1
I0416 12:37:18.270470 45273 layer_factory.hpp:77] Creating layer pool2_p
I0416 12:37:18.270495 45273 net.cpp:106] Creating Layer pool2_p
I0416 12:37:18.270519 45273 net.cpp:454] pool2_p <- conv2_p
I0416 12:37:18.270548 45273 net.cpp:411] pool2_p -> pool2_p
I0416 12:37:18.270609 45273 net.cpp:150] Setting up pool2_p
I0416 12:37:18.270642 45273 net.cpp:157] Top shape: 100 50 54 54 (14580000)
I0416 12:37:18.270665 45273 net.cpp:165] Memory required for data: 1703639200
I0416 12:37:18.270689 45273 layer_factory.hpp:77] Creating layer ip1_p
I0416 12:37:18.270717 45273 net.cpp:106] Creating Layer ip1_p
I0416 12:37:18.270743 45273 net.cpp:454] ip1_p <- pool2_p
I0416 12:37:18.270773 45273 net.cpp:411] ip1_p -> ip1_p
I0416 12:37:18.951355 45273 net.cpp:150] Setting up ip1_p
I0416 12:37:18.951431 45273 net.cpp:157] Top shape: 100 500 (50000)
I0416 12:37:18.951478 45273 net.cpp:165] Memory required for data: 1703839200
I0416 12:37:18.951552 45273 net.cpp:514] Sharing parameters 'ip1_w' owned by layer 'ip1', param index 0
I0416 12:37:18.951582 45273 net.cpp:514] Sharing parameters 'ip1_b' owned by layer 'ip1', param index 1
I0416 12:37:18.951611 45273 layer_factory.hpp:77] Creating layer relu1_p
I0416 12:37:18.951645 45273 net.cpp:106] Creating Layer relu1_p
I0416 12:37:18.951673 45273 net.cpp:454] relu1_p <- ip1_p
I0416 12:37:18.951704 45273 net.cpp:411] relu1_p -> ip2_p
I0416 12:37:18.951778 45273 net.cpp:150] Setting up relu1_p
I0416 12:37:18.951814 45273 net.cpp:157] Top shape: 100 500 (50000)
I0416 12:37:18.951838 45273 net.cpp:165] Memory required for data: 1704039200
I0416 12:37:18.951861 45273 layer_factory.hpp:77] Creating layer feat_p
I0416 12:37:18.951894 45273 net.cpp:106] Creating Layer feat_p
I0416 12:37:18.951920 45273 net.cpp:454] feat_p <- ip2_p
I0416 12:37:18.951948 45273 net.cpp:411] feat_p -> feat_p
I0416 12:37:18.952107 45273 net.cpp:150] Setting up feat_p
I0416 12:37:18.952147 45273 net.cpp:157] Top shape: 100 2 (200)
I0416 12:37:18.952174 45273 net.cpp:165] Memory required for data: 1704040000
I0416 12:37:18.952199 45273 net.cpp:514] Sharing parameters 'feat_w' owned by layer 'feat', param index 0
I0416 12:37:18.952226 45273 net.cpp:514] Sharing parameters 'feat_b' owned by layer 'feat', param index 1
I0416 12:37:18.952251 45273 layer_factory.hpp:77] Creating layer loss
I0416 12:37:18.952286 45273 net.cpp:106] Creating Layer loss
…
