…
I0416 12:37:14.406324 41288 net.cpp:322] The NetState phase (0) differed from the phase (1) specified by a rule in layer data_2
I0416 12:37:14.406500 41288 net.cpp:49] Initializing net from parameters: 
name: "pirc_mnist_full_train_test"
state {
  phase: TRAIN
}
layer {
  name: "data_1"
  type: "ImageData"
  top: "data"
  top: "sim"
  include {
    phase: TRAIN
  }
  image_data_param {
    source: "data/train1_full.txt"
    batch_size: 100
  }
}
layer {
  name: "data_2"
  type: "ImageData"
  top: "data_p"
  top: "dummy_labels"
  include {
    phase: TRAIN
  }
  image_data_param {
    source: "data/train2_full.txt"
    batch_size: 100
  }
}
layer {
  name: "conv1"
  type: "Convolution"
  bottom: "data"
  top: "conv1"
  param {
    name: "conv1_w"
    lr_mult: 1
  }
  param {
    name: "conv1_b"
    lr_mult: 2
  }
  convolution_param {
    num_output: 20
    kernel_size: 5
    stride: 1
    weight_filler {
      type: "xavier"
    }
    bias_filler {
      type: "constant"
    }
  }
}
layer {
  name: "pool1"
  type: "Pooling"
  bottom: "conv1"
  top: "pool1"
  pooling_param {
    pool: MAX
    kernel_size: 2
    stride: 2
  }
}
layer {
  name: "conv2"
  type: "Convolution"
  bottom: "pool1"
  top: "conv2"
  param {
    name: "conv2_w"
    lr_mult: 1
  }
  param {
    name: "conv2_b"
    lr_mult: 2
  }
  convolution_param {
    num_output: 50
    kernel_size: 5
    stride: 1
    weight_filler {
      type: "xavier"
    }
    bias_filler {
      type: "constant"
    }
  }
}
layer {
  name: "pool2"
  type: "Pooling"
  bottom: "conv2"
  top: "pool2"
  pooling_param {
    pool: MAX
    kernel_size: 2
    stride: 2
  }
}
layer {
  name: "ip1"
  type: "InnerProduct"
  bottom: "pool2"
  top: "ip1"
  param {
    name: "ip1_w"
    lr_mult: 1
  }
  param {
    name: "ip1_b"
    lr_mult: 2
  }
  inner_product_param {
    num_output: 500
    weight_filler {
      type: "xavier"
    }
    bias_filler {
      type: "constant"
    }
  }
}
layer {
  name: "relu1"
  type: "ReLU"
  bottom: "ip1"
  top: "ip2"
}
layer {
  name: "feat"
  type: "InnerProduct"
  bottom: "ip2"
  top: "feat"
  param {
    name: "feat_w"
    lr_mult: 1
  }
  param {
    name: "feat_b"
    lr_mult: 2
  }
  inner_product_param {
    num_output: 2
    weight_filler {
      type: "xavier"
    }
    bias_filler {
      type: "constant"
    }
  }
}
layer {
  name: "conv1_p"
  type: "Convolution"
  bottom: "data_p"
  top: "conv1_p"
  param {
    name: "conv1_w"
    lr_mult: 1
  }
  param {
    name: "conv1_b"
    lr_mult: 2
  }
  convolution_param {
    num_output: 20
    kernel_size: 5
    stride: 1
    weight_filler {
      type: "xavier"
    }
    bias_filler {
      type: "constant"
    }
  }
}
layer {
  name: "pool1_p"
  type: "Pooling"
  bottom: "conv1_p"
  top: "pool1_p"
  pooling_param {
    pool: MAX
    kernel_size: 2
    stride: 2
  }
}
layer {
  name: "conv2_p"
  type: "Convolution"
  bottom: "pool1_p"
  top: "conv2_p"
  param {
    name: "conv2_w"
    lr_mult: 1
  }
  param {
    name: "conv2_b"
    lr_mult: 2
  }
  convolution_param {
    num_output: 50
    kernel_size: 5
    stride: 1
    weight_filler {
      type: "xavier"
    }
    bias_filler {
      type: "constant"
    }
  }
}
layer {
  name: "pool2_p"
  type: "Pooling"
  bottom: "conv2_p"
  top: "pool2_p"
  pooling_param {
    pool: MAX
    kernel_size: 2
    stride: 2
  }
}
layer {
  name: "ip1_p"
  type: "InnerProduct"
  bottom: "pool2_p"
  top: "ip1_p"
  param {
    name: "ip1_w"
    lr_mult: 1
  }
  param {
    name: "ip1_b"
    lr_mult: 2
  }
  inner_product_param {
    num_output: 500
    weight_filler {
      type: "xavier"
    }
    bias_filler {
      type: "constant"
    }
  }
}
layer {
  name: "relu1_p"
  type: "ReLU"
  bottom: "ip1_p"
  top: "ip2_p"
}
layer {
  name: "feat_p"
  type: "InnerProduct"
  bottom: "ip2_p"
  top: "feat_p"
  param {
    name: "feat_w"
    lr_mult: 1
  }
  param {
    name: "feat_b"
    lr_mult: 2
  }
  inner_product_param {
    num_output: 2
    weight_filler {
      type: "xavier"
    }
    bias_filler {
      type: "constant"
    }
  }
}
layer {
  name: "loss"
  type: "ContrastiveLoss"
  bottom: "feat"
  bottom: "feat_p"
  bottom: "sim"
  top: "loss"
  contrastive_loss_param {
    margin: 1
  }
}
I0416 12:37:14.406777 41288 layer_factory.hpp:77] Creating layer data_1
I0416 12:37:14.406975 41288 net.cpp:106] Creating Layer data_1
I0416 12:37:14.407016 41288 net.cpp:411] data_1 -> data
I0416 12:37:14.407100 41288 net.cpp:411] data_1 -> sim
I0416 12:37:14.407212 41288 image_data_layer.cpp:38] Opening file data/train1_full.txt
I0416 12:37:14.420788 41288 image_data_layer.cpp:53] A total of 14000 images.
I0416 12:37:14.531873 41288 image_data_layer.cpp:80] output data size: 100,3,227,227
I0416 12:37:14.650943 41288 net.cpp:150] Setting up data_1
I0416 12:37:14.651031 41288 net.cpp:157] Top shape: 100 3 227 227 (15458700)
I0416 12:37:14.651060 41288 net.cpp:157] Top shape: 100 (100)
I0416 12:37:14.651082 41288 net.cpp:165] Memory required for data: 61835200
I0416 12:37:14.651109 41288 layer_factory.hpp:77] Creating layer data_2
I0416 12:37:14.651161 41288 net.cpp:106] Creating Layer data_2
I0416 12:37:14.651188 41288 net.cpp:411] data_2 -> data_p
I0416 12:37:14.651227 41288 net.cpp:411] data_2 -> dummy_labels
I0416 12:37:14.651257 41288 image_data_layer.cpp:38] Opening file data/train2_full.txt
I0416 12:37:14.661191 41288 image_data_layer.cpp:53] A total of 14000 images.
I0416 12:37:14.667652 41288 image_data_layer.cpp:80] output data size: 100,3,227,227
I0416 12:37:14.791697 41288 net.cpp:150] Setting up data_2
I0416 12:37:14.791805 41288 net.cpp:157] Top shape: 100 3 227 227 (15458700)
I0416 12:37:14.791833 41288 net.cpp:157] Top shape: 100 (100)
I0416 12:37:14.791856 41288 net.cpp:165] Memory required for data: 123670400
I0416 12:37:14.791880 41288 layer_factory.hpp:77] Creating layer conv1
I0416 12:37:14.791961 41288 net.cpp:106] Creating Layer conv1
I0416 12:37:14.791990 41288 net.cpp:454] conv1 <- data
I0416 12:37:14.792031 41288 net.cpp:411] conv1 -> conv1
I0416 12:37:14.793727 41288 net.cpp:150] Setting up conv1
I0416 12:37:14.793771 41288 net.cpp:157] Top shape: 100 20 223 223 (99458000)
I0416 12:37:14.793794 41288 net.cpp:165] Memory required for data: 521502400
I0416 12:37:14.793845 41288 layer_factory.hpp:77] Creating layer pool1
I0416 12:37:14.793877 41288 net.cpp:106] Creating Layer pool1
I0416 12:37:14.793912 41288 net.cpp:454] pool1 <- conv1
I0416 12:37:14.793937 41288 net.cpp:411] pool1 -> pool1
I0416 12:37:14.794107 41288 net.cpp:150] Setting up pool1
I0416 12:37:14.794149 41288 net.cpp:157] Top shape: 100 20 112 112 (25088000)
I0416 12:37:14.794173 41288 net.cpp:165] Memory required for data: 621854400
I0416 12:37:14.794194 41288 layer_factory.hpp:77] Creating layer conv2
I0416 12:37:14.794236 41288 net.cpp:106] Creating Layer conv2
I0416 12:37:14.794261 41288 net.cpp:454] conv2 <- pool1
I0416 12:37:14.794288 41288 net.cpp:411] conv2 -> conv2
I0416 12:37:14.795291 41288 net.cpp:150] Setting up conv2
I0416 12:37:14.795347 41288 net.cpp:157] Top shape: 100 50 108 108 (58320000)
I0416 12:37:14.795370 41288 net.cpp:165] Memory required for data: 855134400
I0416 12:37:14.795397 41288 layer_factory.hpp:77] Creating layer pool2
I0416 12:37:14.795423 41288 net.cpp:106] Creating Layer pool2
I0416 12:37:14.795446 41288 net.cpp:454] pool2 <- conv2
I0416 12:37:14.795487 41288 net.cpp:411] pool2 -> pool2
I0416 12:37:14.795547 41288 net.cpp:150] Setting up pool2
I0416 12:37:14.795575 41288 net.cpp:157] Top shape: 100 50 54 54 (14580000)
I0416 12:37:14.795651 41288 net.cpp:165] Memory required for data: 913454400
I0416 12:37:14.795686 41288 layer_factory.hpp:77] Creating layer ip1
I0416 12:37:14.795734 41288 net.cpp:106] Creating Layer ip1
I0416 12:37:14.795760 41288 net.cpp:454] ip1 <- pool2
I0416 12:37:14.795789 41288 net.cpp:411] ip1 -> ip1
I0416 12:37:15.519004 41288 net.cpp:150] Setting up ip1
I0416 12:37:15.519146 41288 net.cpp:157] Top shape: 100 500 (50000)
I0416 12:37:15.519175 41288 net.cpp:165] Memory required for data: 913654400
I0416 12:37:15.519222 41288 layer_factory.hpp:77] Creating layer relu1
I0416 12:37:15.519258 41288 net.cpp:106] Creating Layer relu1
I0416 12:37:15.519291 41288 net.cpp:454] relu1 <- ip1
I0416 12:37:15.519322 41288 net.cpp:411] relu1 -> ip2
I0416 12:37:15.519381 41288 net.cpp:150] Setting up relu1
I0416 12:37:15.519426 41288 net.cpp:157] Top shape: 100 500 (50000)
I0416 12:37:15.519449 41288 net.cpp:165] Memory required for data: 913854400
I0416 12:37:15.519484 41288 layer_factory.hpp:77] Creating layer feat
I0416 12:37:15.519516 41288 net.cpp:106] Creating Layer feat
I0416 12:37:15.519541 41288 net.cpp:454] feat <- ip2
I0416 12:37:15.519568 41288 net.cpp:411] feat -> feat
I0416 12:37:15.519711 41288 net.cpp:150] Setting up feat
I0416 12:37:15.519747 41288 net.cpp:157] Top shape: 100 2 (200)
I0416 12:37:15.519783 41288 net.cpp:165] Memory required for data: 913855200
I0416 12:37:15.519809 41288 layer_factory.hpp:77] Creating layer conv1_p
I0416 12:37:15.519843 41288 net.cpp:106] Creating Layer conv1_p
I0416 12:37:15.519870 41288 net.cpp:454] conv1_p <- data_p
I0416 12:37:15.519909 41288 net.cpp:411] conv1_p -> conv1_p
I0416 12:37:15.520196 41288 net.cpp:150] Setting up conv1_p
I0416 12:37:15.520232 41288 net.cpp:157] Top shape: 100 20 223 223 (99458000)
I0416 12:37:15.520256 41288 net.cpp:165] Memory required for data: 1311687200
I0416 12:37:15.520280 41288 net.cpp:514] Sharing parameters 'conv1_w' owned by layer 'conv1', param index 0
I0416 12:37:15.520306 41288 net.cpp:514] Sharing parameters 'conv1_b' owned by layer 'conv1', param index 1
I0416 12:37:15.520329 41288 layer_factory.hpp:77] Creating layer pool1_p
I0416 12:37:15.520359 41288 net.cpp:106] Creating Layer pool1_p
I0416 12:37:15.520383 41288 net.cpp:454] pool1_p <- conv1_p
I0416 12:37:15.520409 41288 net.cpp:411] pool1_p -> pool1_p
I0416 12:37:15.520469 41288 net.cpp:150] Setting up pool1_p
I0416 12:37:15.520501 41288 net.cpp:157] Top shape: 100 20 112 112 (25088000)
I0416 12:37:15.520524 41288 net.cpp:165] Memory required for data: 1412039200
I0416 12:37:15.520546 41288 layer_factory.hpp:77] Creating layer conv2_p
I0416 12:37:15.520577 41288 net.cpp:106] Creating Layer conv2_p
I0416 12:37:15.520615 41288 net.cpp:454] conv2_p <- pool1_p
I0416 12:37:15.520645 41288 net.cpp:411] conv2_p -> conv2_p
I0416 12:37:15.521066 41288 net.cpp:150] Setting up conv2_p
I0416 12:37:15.521103 41288 net.cpp:157] Top shape: 100 50 108 108 (58320000)
I0416 12:37:15.521126 41288 net.cpp:165] Memory required for data: 1645319200
I0416 12:37:15.521149 41288 net.cpp:514] Sharing parameters 'conv2_w' owned by layer 'conv2', param index 0
I0416 12:37:15.521174 41288 net.cpp:514] Sharing parameters 'conv2_b' owned by layer 'conv2', param index 1
I0416 12:37:15.521198 41288 layer_factory.hpp:77] Creating layer pool2_p
I0416 12:37:15.521224 41288 net.cpp:106] Creating Layer pool2_p
I0416 12:37:15.521246 41288 net.cpp:454] pool2_p <- conv2_p
I0416 12:37:15.521275 41288 net.cpp:411] pool2_p -> pool2_p
I0416 12:37:15.521332 41288 net.cpp:150] Setting up pool2_p
I0416 12:37:15.521363 41288 net.cpp:157] Top shape: 100 50 54 54 (14580000)
I0416 12:37:15.521386 41288 net.cpp:165] Memory required for data: 1703639200
I0416 12:37:15.521409 41288 layer_factory.hpp:77] Creating layer ip1_p
I0416 12:37:15.521438 41288 net.cpp:106] Creating Layer ip1_p
I0416 12:37:15.521464 41288 net.cpp:454] ip1_p <- pool2_p
I0416 12:37:15.521492 41288 net.cpp:411] ip1_p -> ip1_p
I0416 12:37:16.191261 41288 net.cpp:150] Setting up ip1_p
I0416 12:37:16.191347 41288 net.cpp:157] Top shape: 100 500 (50000)
I0416 12:37:16.191437 41288 net.cpp:165] Memory required for data: 1703839200
I0416 12:37:16.191469 41288 net.cpp:514] Sharing parameters 'ip1_w' owned by layer 'ip1', param index 0
I0416 12:37:16.191498 41288 net.cpp:514] Sharing parameters 'ip1_b' owned by layer 'ip1', param index 1
I0416 12:37:16.191524 41288 layer_factory.hpp:77] Creating layer relu1_p
I0416 12:37:16.191557 41288 net.cpp:106] Creating Layer relu1_p
I0416 12:37:16.191583 41288 net.cpp:454] relu1_p <- ip1_p
I0416 12:37:16.191617 41288 net.cpp:411] relu1_p -> ip2_p
I0416 12:37:16.191686 41288 net.cpp:150] Setting up relu1_p
I0416 12:37:16.191721 41288 net.cpp:157] Top shape: 100 500 (50000)
I0416 12:37:16.191746 41288 net.cpp:165] Memory required for data: 1704039200
I0416 12:37:16.191771 41288 layer_factory.hpp:77] Creating layer feat_p
I0416 12:37:16.191800 41288 net.cpp:106] Creating Layer feat_p
I0416 12:37:16.191826 41288 net.cpp:454] feat_p <- ip2_p
I0416 12:37:16.191856 41288 net.cpp:411] feat_p -> feat_p
I0416 12:37:16.191983 41288 net.cpp:150] Setting up feat_p
I0416 12:37:16.192019 41288 net.cpp:157] Top shape: 100 2 (200)
I0416 12:37:16.192055 41288 net.cpp:165] Memory required for data: 1704040000
I0416 12:37:16.192080 41288 net.cpp:514] Sharing parameters 'feat_w' owned by layer 'feat', param index 0
I0416 12:37:16.192104 41288 net.cpp:514] Sharing parameters 'feat_b' owned by layer 'feat', param index 1
I0416 12:37:16.192128 41288 layer_factory.hpp:77] Creating layer loss
I0416 12:37:16.192162 41288 net.cpp:106] Creating Layer loss
…
