…
I0419 11:52:11.467754 41895 net.cpp:322] The NetState phase (0) differed from the phase (1) specified by a rule in layer data_2
I0419 11:52:11.467953 41895 net.cpp:49] Initializing net from parameters: 
name: "pirc_siamese_train_test"
state {
  phase: TRAIN
}
layer {
  name: "data_1"
  type: "ImageData"
  top: "data"
  top: "sim"
  include {
    phase: TRAIN
  }
  image_data_param {
    source: "data/train1_ss.txt"
    batch_size: 100
  }
}
layer {
  name: "data_2"
  type: "ImageData"
  top: "data_p"
  top: "dummy_labels"
  include {
    phase: TRAIN
  }
  image_data_param {
    source: "data/train2_ss.txt"
    batch_size: 100
  }
}
layer {
  name: "conv1"
  type: "Convolution"
  bottom: "data"
  top: "conv1"
  param {
    name: "conv1_w"
    lr_mult: 1
  }
  param {
    name: "conv1_b"
    lr_mult: 2
  }
  convolution_param {
    num_output: 20
    kernel_size: 5
    stride: 1
    weight_filler {
      type: "xavier"
    }
    bias_filler {
      type: "constant"
    }
  }
}
layer {
  name: "pool1"
  type: "Pooling"
  bottom: "conv1"
  top: "pool1"
  pooling_param {
    pool: MAX
    kernel_size: 2
    stride: 2
  }
}
layer {
  name: "conv2"
  type: "Convolution"
  bottom: "pool1"
  top: "conv2"
  param {
    name: "conv2_w"
    lr_mult: 1
  }
  param {
    name: "conv2_b"
    lr_mult: 2
  }
  convolution_param {
    num_output: 50
    kernel_size: 5
    stride: 1
    weight_filler {
      type: "xavier"
    }
    bias_filler {
      type: "constant"
    }
  }
}
layer {
  name: "pool2"
  type: "Pooling"
  bottom: "conv2"
  top: "pool2"
  pooling_param {
    pool: MAX
    kernel_size: 2
    stride: 2
  }
}
layer {
  name: "ip1"
  type: "InnerProduct"
  bottom: "pool2"
  top: "ip1"
  param {
    name: "ip1_w"
    lr_mult: 1
  }
  param {
    name: "ip1_b"
    lr_mult: 2
  }
  inner_product_param {
    num_output: 500
    weight_filler {
      type: "xavier"
    }
    bias_filler {
      type: "constant"
    }
  }
}
layer {
  name: "relu1"
  type: "ReLU"
  bottom: "ip1"
  top: "ip1"
}
layer {
  name: "ip2"
  type: "InnerProduct"
  bottom: "ip1"
  top: "ip2"
  param {
    name: "ip2_w"
    lr_mult: 1
  }
  param {
    name: "ip2_b"
    lr_mult: 2
  }
  inner_product_param {
    num_output: 10
    weight_filler {
      type: "xavier"
    }
    bias_filler {
      type: "constant"
    }
  }
}
layer {
  name: "feat"
  type: "InnerProduct"
  bottom: "ip2"
  top: "feat"
  param {
    name: "feat_w"
    lr_mult: 1
  }
  param {
    name: "feat_b"
    lr_mult: 2
  }
  inner_product_param {
    num_output: 2
    weight_filler {
      type: "xavier"
    }
    bias_filler {
      type: "constant"
    }
  }
}
layer {
  name: "conv1_p"
  type: "Convolution"
  bottom: "data_p"
  top: "conv1_p"
  param {
    name: "conv1_w"
    lr_mult: 1
  }
  param {
    name: "conv1_b"
    lr_mult: 2
  }
  convolution_param {
    num_output: 20
    kernel_size: 5
    stride: 1
    weight_filler {
      type: "xavier"
    }
    bias_filler {
      type: "constant"
    }
  }
}
layer {
  name: "pool1_p"
  type: "Pooling"
  bottom: "conv1_p"
  top: "pool1_p"
  pooling_param {
    pool: MAX
    kernel_size: 2
    stride: 2
  }
}
layer {
  name: "conv2_p"
  type: "Convolution"
  bottom: "pool1_p"
  top: "conv2_p"
  param {
    name: "conv2_w"
    lr_mult: 1
  }
  param {
    name: "conv2_b"
    lr_mult: 2
  }
  convolution_param {
    num_output: 50
    kernel_size: 5
    stride: 1
    weight_filler {
      type: "xavier"
    }
    bias_filler {
      type: "constant"
    }
  }
}
layer {
  name: "pool2_p"
  type: "Pooling"
  bottom: "conv2_p"
  top: "pool2_p"
  pooling_param {
    pool: MAX
    kernel_size: 2
    stride: 2
  }
}
layer {
  name: "ip1_p"
  type: "InnerProduct"
  bottom: "pool2_p"
  top: "ip1_p"
  param {
    name: "ip1_w"
    lr_mult: 1
  }
  param {
    name: "ip1_b"
    lr_mult: 2
  }
  inner_product_param {
    num_output: 500
    weight_filler {
      type: "xavier"
    }
    bias_filler {
      type: "constant"
    }
  }
}
layer {
  name: "relu1_p"
  type: "ReLU"
  bottom: "ip1_p"
  top: "ip1_p"
}
layer {
  name: "ip2_p"
  type: "InnerProduct"
  bottom: "ip1_p"
  top: "ip2_p"
  param {
    name: "ip2_w"
    lr_mult: 1
  }
  param {
    name: "ip2_b"
    lr_mult: 2
  }
  inner_product_param {
    num_output: 10
    weight_filler {
      type: "xavier"
    }
    bias_filler {
      type: "constant"
    }
  }
}
layer {
  name: "feat_p"
  type: "InnerProduct"
  bottom: "ip2_p"
  top: "feat_p"
  param {
    name: "feat_w"
    lr_mult: 1
  }
  param {
    name: "feat_b"
    lr_mult: 2
  }
  inner_product_param {
    num_output: 2
    weight_filler {
      type: "xavier"
    }
    bias_filler {
      type: "constant"
    }
  }
}
layer {
  name: "loss"
  type: "ContrastiveLoss"
  bottom: "feat"
  bottom: "feat_p"
  bottom: "sim"
  top: "loss"
  contrastive_loss_param {
    margin: 1
  }
}
I0419 11:52:11.468266 41895 layer_factory.hpp:77] Creating layer data_1
I0419 11:52:11.468471 41895 net.cpp:106] Creating Layer data_1
I0419 11:52:11.468514 41895 net.cpp:411] data_1 -> data
I0419 11:52:11.468603 41895 net.cpp:411] data_1 -> sim
I0419 11:52:11.468719 41895 image_data_layer.cpp:38] Opening file data/train1_ss.txt
I0419 11:52:11.518183 41895 image_data_layer.cpp:53] A total of 14000 images.
I0419 11:52:11.745959 41895 image_data_layer.cpp:80] output data size: 100,3,227,227
I0419 11:52:11.871412 41895 net.cpp:150] Setting up data_1
I0419 11:52:11.871505 41895 net.cpp:157] Top shape: 100 3 227 227 (15458700)
I0419 11:52:11.871533 41895 net.cpp:157] Top shape: 100 (100)
I0419 11:52:11.871556 41895 net.cpp:165] Memory required for data: 61835200
I0419 11:52:11.871583 41895 layer_factory.hpp:77] Creating layer data_2
I0419 11:52:11.871636 41895 net.cpp:106] Creating Layer data_2
I0419 11:52:11.871664 41895 net.cpp:411] data_2 -> data_p
I0419 11:52:11.871703 41895 net.cpp:411] data_2 -> dummy_labels
I0419 11:52:11.871734 41895 image_data_layer.cpp:38] Opening file data/train2_ss.txt
I0419 11:52:11.907405 41895 image_data_layer.cpp:53] A total of 14000 images.
I0419 11:52:11.933284 41895 image_data_layer.cpp:80] output data size: 100,3,227,227
I0419 11:52:12.051803 41895 net.cpp:150] Setting up data_2
I0419 11:52:12.051909 41895 net.cpp:157] Top shape: 100 3 227 227 (15458700)
I0419 11:52:12.051936 41895 net.cpp:157] Top shape: 100 (100)
I0419 11:52:12.051959 41895 net.cpp:165] Memory required for data: 123670400
I0419 11:52:12.051983 41895 layer_factory.hpp:77] Creating layer conv1
I0419 11:52:12.052065 41895 net.cpp:106] Creating Layer conv1
I0419 11:52:12.052094 41895 net.cpp:454] conv1 <- data
I0419 11:52:12.052139 41895 net.cpp:411] conv1 -> conv1
I0419 11:52:12.053755 41895 net.cpp:150] Setting up conv1
I0419 11:52:12.053797 41895 net.cpp:157] Top shape: 100 20 223 223 (99458000)
I0419 11:52:12.053820 41895 net.cpp:165] Memory required for data: 521502400
I0419 11:52:12.053870 41895 layer_factory.hpp:77] Creating layer pool1
I0419 11:52:12.053901 41895 net.cpp:106] Creating Layer pool1
I0419 11:52:12.053932 41895 net.cpp:454] pool1 <- conv1
I0419 11:52:12.053957 41895 net.cpp:411] pool1 -> pool1
I0419 11:52:12.054126 41895 net.cpp:150] Setting up pool1
I0419 11:52:12.054163 41895 net.cpp:157] Top shape: 100 20 112 112 (25088000)
I0419 11:52:12.054188 41895 net.cpp:165] Memory required for data: 621854400
I0419 11:52:12.054213 41895 layer_factory.hpp:77] Creating layer conv2
I0419 11:52:12.054252 41895 net.cpp:106] Creating Layer conv2
I0419 11:52:12.054277 41895 net.cpp:454] conv2 <- pool1
I0419 11:52:12.054366 41895 net.cpp:411] conv2 -> conv2
I0419 11:52:12.055392 41895 net.cpp:150] Setting up conv2
I0419 11:52:12.055431 41895 net.cpp:157] Top shape: 100 50 108 108 (58320000)
I0419 11:52:12.055456 41895 net.cpp:165] Memory required for data: 855134400
I0419 11:52:12.055496 41895 layer_factory.hpp:77] Creating layer pool2
I0419 11:52:12.055526 41895 net.cpp:106] Creating Layer pool2
I0419 11:52:12.055551 41895 net.cpp:454] pool2 <- conv2
I0419 11:52:12.055577 41895 net.cpp:411] pool2 -> pool2
I0419 11:52:12.055626 41895 net.cpp:150] Setting up pool2
I0419 11:52:12.055656 41895 net.cpp:157] Top shape: 100 50 54 54 (14580000)
I0419 11:52:12.055678 41895 net.cpp:165] Memory required for data: 913454400
I0419 11:52:12.055699 41895 layer_factory.hpp:77] Creating layer ip1
I0419 11:52:12.055743 41895 net.cpp:106] Creating Layer ip1
I0419 11:52:12.055768 41895 net.cpp:454] ip1 <- pool2
I0419 11:52:12.055794 41895 net.cpp:411] ip1 -> ip1
I0419 11:52:12.689910 41895 net.cpp:150] Setting up ip1
I0419 11:52:12.690089 41895 net.cpp:157] Top shape: 100 500 (50000)
I0419 11:52:12.690115 41895 net.cpp:165] Memory required for data: 913654400
I0419 11:52:12.690157 41895 layer_factory.hpp:77] Creating layer relu1
I0419 11:52:12.690191 41895 net.cpp:106] Creating Layer relu1
I0419 11:52:12.690215 41895 net.cpp:454] relu1 <- ip1
I0419 11:52:12.690254 41895 net.cpp:397] relu1 -> ip1 (in-place)
I0419 11:52:12.690301 41895 net.cpp:150] Setting up relu1
I0419 11:52:12.690328 41895 net.cpp:157] Top shape: 100 500 (50000)
I0419 11:52:12.690352 41895 net.cpp:165] Memory required for data: 913854400
I0419 11:52:12.690379 41895 layer_factory.hpp:77] Creating layer ip2
I0419 11:52:12.690412 41895 net.cpp:106] Creating Layer ip2
I0419 11:52:12.690441 41895 net.cpp:454] ip2 <- ip1
I0419 11:52:12.690470 41895 net.cpp:411] ip2 -> ip2
I0419 11:52:12.690647 41895 net.cpp:150] Setting up ip2
I0419 11:52:12.690778 41895 net.cpp:157] Top shape: 100 10 (1000)
I0419 11:52:12.690804 41895 net.cpp:165] Memory required for data: 913858400
I0419 11:52:12.690839 41895 layer_factory.hpp:77] Creating layer feat
I0419 11:52:12.690866 41895 net.cpp:106] Creating Layer feat
I0419 11:52:12.690981 41895 net.cpp:454] feat <- ip2
I0419 11:52:12.691010 41895 net.cpp:411] feat -> feat
I0419 11:52:12.691148 41895 net.cpp:150] Setting up feat
I0419 11:52:12.691181 41895 net.cpp:157] Top shape: 100 2 (200)
I0419 11:52:12.691205 41895 net.cpp:165] Memory required for data: 913859200
I0419 11:52:12.691246 41895 layer_factory.hpp:77] Creating layer conv1_p
I0419 11:52:12.691287 41895 net.cpp:106] Creating Layer conv1_p
I0419 11:52:12.691311 41895 net.cpp:454] conv1_p <- data_p
I0419 11:52:12.691349 41895 net.cpp:411] conv1_p -> conv1_p
I0419 11:52:12.691633 41895 net.cpp:150] Setting up conv1_p
I0419 11:52:12.691669 41895 net.cpp:157] Top shape: 100 20 223 223 (99458000)
I0419 11:52:12.691786 41895 net.cpp:165] Memory required for data: 1311691200
I0419 11:52:12.691825 41895 net.cpp:514] Sharing parameters 'conv1_w' owned by layer 'conv1', param index 0
I0419 11:52:12.691851 41895 net.cpp:514] Sharing parameters 'conv1_b' owned by layer 'conv1', param index 1
I0419 11:52:12.691901 41895 layer_factory.hpp:77] Creating layer pool1_p
I0419 11:52:12.691946 41895 net.cpp:106] Creating Layer pool1_p
I0419 11:52:12.691977 41895 net.cpp:454] pool1_p <- conv1_p
I0419 11:52:12.692008 41895 net.cpp:411] pool1_p -> pool1_p
I0419 11:52:12.692072 41895 net.cpp:150] Setting up pool1_p
I0419 11:52:12.692118 41895 net.cpp:157] Top shape: 100 20 112 112 (25088000)
I0419 11:52:12.692162 41895 net.cpp:165] Memory required for data: 1412043200
I0419 11:52:12.692186 41895 layer_factory.hpp:77] Creating layer conv2_p
I0419 11:52:12.692227 41895 net.cpp:106] Creating Layer conv2_p
I0419 11:52:12.692255 41895 net.cpp:454] conv2_p <- pool1_p
I0419 11:52:12.692286 41895 net.cpp:411] conv2_p -> conv2_p
I0419 11:52:12.692735 41895 net.cpp:150] Setting up conv2_p
I0419 11:52:12.692777 41895 net.cpp:157] Top shape: 100 50 108 108 (58320000)
I0419 11:52:12.692802 41895 net.cpp:165] Memory required for data: 1645323200
I0419 11:52:12.692888 41895 net.cpp:514] Sharing parameters 'conv2_w' owned by layer 'conv2', param index 0
I0419 11:52:12.692921 41895 net.cpp:514] Sharing parameters 'conv2_b' owned by layer 'conv2', param index 1
I0419 11:52:12.692947 41895 layer_factory.hpp:77] Creating layer pool2_p
I0419 11:52:12.692975 41895 net.cpp:106] Creating Layer pool2_p
I0419 11:52:12.692999 41895 net.cpp:454] pool2_p <- conv2_p
I0419 11:52:12.693049 41895 net.cpp:411] pool2_p -> pool2_p
I0419 11:52:12.693119 41895 net.cpp:150] Setting up pool2_p
I0419 11:52:12.693156 41895 net.cpp:157] Top shape: 100 50 54 54 (14580000)
I0419 11:52:12.693192 41895 net.cpp:165] Memory required for data: 1703643200
I0419 11:52:12.693212 41895 layer_factory.hpp:77] Creating layer ip1_p
I0419 11:52:12.693236 41895 net.cpp:106] Creating Layer ip1_p
I0419 11:52:12.693259 41895 net.cpp:454] ip1_p <- pool2_p
I0419 11:52:12.693284 41895 net.cpp:411] ip1_p -> ip1_p
I0419 11:52:13.324507 41895 net.cpp:150] Setting up ip1_p
I0419 11:52:13.324590 41895 net.cpp:157] Top shape: 100 500 (50000)
I0419 11:52:13.324616 41895 net.cpp:165] Memory required for data: 1703843200
I0419 11:52:13.324643 41895 net.cpp:514] Sharing parameters 'ip1_w' owned by layer 'ip1', param index 0
I0419 11:52:13.324668 41895 net.cpp:514] Sharing parameters 'ip1_b' owned by layer 'ip1', param index 1
I0419 11:52:13.324692 41895 layer_factory.hpp:77] Creating layer relu1_p
I0419 11:52:13.324725 41895 net.cpp:106] Creating Layer relu1_p
I0419 11:52:13.324750 41895 net.cpp:454] relu1_p <- ip1_p
I0419 11:52:13.324777 41895 net.cpp:397] relu1_p -> ip1_p (in-place)
I0419 11:52:13.324812 41895 net.cpp:150] Setting up relu1_p
I0419 11:52:13.324837 41895 net.cpp:157] Top shape: 100 500 (50000)
I0419 11:52:13.324859 41895 net.cpp:165] Memory required for data: 1704043200
I0419 11:52:13.324882 41895 layer_factory.hpp:77] Creating layer ip2_p
I0419 11:52:13.324916 41895 net.cpp:106] Creating Layer ip2_p
I0419 11:52:13.324941 41895 net.cpp:454] ip2_p <- ip1_p
I0419 11:52:13.324966 41895 net.cpp:411] ip2_p -> ip2_p
I0419 11:52:13.325119 41895 net.cpp:150] Setting up ip2_p
I0419 11:52:13.325172 41895 net.cpp:157] Top shape: 100 10 (1000)
I0419 11:52:13.325208 41895 net.cpp:165] Memory required for data: 1704047200
I0419 11:52:13.325237 41895 net.cpp:514] Sharing parameters 'ip2_w' owned by layer 'ip2', param index 0
I0419 11:52:13.325263 41895 net.cpp:514] Sharing parameters 'ip2_b' owned by layer 'ip2', param index 1
I0419 11:52:13.325289 41895 layer_factory.hpp:77] Creating layer feat_p
I0419 11:52:13.325316 41895 net.cpp:106] Creating Layer feat_p
I0419 11:52:13.325341 41895 net.cpp:454] feat_p <- ip2_p
I0419 11:52:13.325371 41895 net.cpp:411] feat_p -> feat_p
I0419 11:52:13.325506 41895 net.cpp:150] Setting up feat_p
I0419 11:52:13.325539 41895 net.cpp:157] Top shape: 100 2 (200)
I0419 11:52:13.325562 41895 net.cpp:165] Memory required for data: 1704048000
I0419 11:52:13.325584 41895 net.cpp:514] Sharing parameters 'feat_w' owned by layer 'feat', param index 0
I0419 11:52:13.325608 41895 net.cpp:514] Sharing parameters 'feat_b' owned by layer 'feat', param index 1
I0419 11:52:13.325631 41895 layer_factory.hpp:77] Creating layer loss
I0419 11:52:13.325659 41895 net.cpp:106] Creating Layer loss
…
