…
I0420 21:49:44.766774 14434 net.cpp:322] The NetState phase (0) differed from the phase (1) specified by a rule in layer data_2
I0420 21:49:44.766964 14434 net.cpp:49] Initializing net from parameters: 
name: "pirc_siamese_train_test"
state {
  phase: TRAIN
}
layer {
  name: "data_1"
  type: "ImageData"
  top: "data"
  top: "sim"
  include {
    phase: TRAIN
  }
  image_data_param {
    source: "data/train1_ss.txt"
    batch_size: 100
  }
}
layer {
  name: "data_2"
  type: "ImageData"
  top: "data_p"
  top: "dummy_labels"
  include {
    phase: TRAIN
  }
  image_data_param {
    source: "data/train2_ss.txt"
    batch_size: 100
  }
}
layer {
  name: "conv1"
  type: "Convolution"
  bottom: "data"
  top: "conv1"
  param {
    name: "conv1_w"
    lr_mult: 1
  }
  param {
    name: "conv1_b"
    lr_mult: 2
  }
  convolution_param {
    num_output: 20
    kernel_size: 5
    stride: 1
    weight_filler {
      type: "xavier"
    }
    bias_filler {
      type: "constant"
    }
  }
}
layer {
  name: "pool1"
  type: "Pooling"
  bottom: "conv1"
  top: "pool1"
  pooling_param {
    pool: MAX
    kernel_size: 2
    stride: 2
  }
}
layer {
  name: "conv2"
  type: "Convolution"
  bottom: "pool1"
  top: "conv2"
  param {
    name: "conv2_w"
    lr_mult: 1
  }
  param {
    name: "conv2_b"
    lr_mult: 2
  }
  convolution_param {
    num_output: 50
    kernel_size: 5
    stride: 1
    weight_filler {
      type: "xavier"
    }
    bias_filler {
      type: "constant"
    }
  }
}
layer {
  name: "pool2"
  type: "Pooling"
  bottom: "conv2"
  top: "pool2"
  pooling_param {
    pool: MAX
    kernel_size: 2
    stride: 2
  }
}
layer {
  name: "ip1"
  type: "InnerProduct"
  bottom: "pool2"
  top: "ip1"
  param {
    name: "ip1_w"
    lr_mult: 1
  }
  param {
    name: "ip1_b"
    lr_mult: 2
  }
  inner_product_param {
    num_output: 500
    weight_filler {
      type: "xavier"
    }
    bias_filler {
      type: "constant"
    }
  }
}
layer {
  name: "relu1"
  type: "ReLU"
  bottom: "ip1"
  top: "ip1"
}
layer {
  name: "ip2"
  type: "InnerProduct"
  bottom: "ip1"
  top: "ip2"
  param {
    name: "ip2_w"
    lr_mult: 1
  }
  param {
    name: "ip2_b"
    lr_mult: 2
  }
  inner_product_param {
    num_output: 10
    weight_filler {
      type: "xavier"
    }
    bias_filler {
      type: "constant"
    }
  }
}
layer {
  name: "feat"
  type: "InnerProduct"
  bottom: "ip2"
  top: "feat"
  param {
    name: "feat_w"
    lr_mult: 1
  }
  param {
    name: "feat_b"
    lr_mult: 2
  }
  inner_product_param {
    num_output: 2
    weight_filler {
      type: "xavier"
    }
    bias_filler {
      type: "constant"
    }
  }
}
layer {
  name: "conv1_p"
  type: "Convolution"
  bottom: "data_p"
  top: "conv1_p"
  param {
    name: "conv1_w"
    lr_mult: 1
  }
  param {
    name: "conv1_b"
    lr_mult: 2
  }
  convolution_param {
    num_output: 20
    kernel_size: 5
    stride: 1
    weight_filler {
      type: "xavier"
    }
    bias_filler {
      type: "constant"
    }
  }
}
layer {
  name: "pool1_p"
  type: "Pooling"
  bottom: "conv1_p"
  top: "pool1_p"
  pooling_param {
    pool: MAX
    kernel_size: 2
    stride: 2
  }
}
layer {
  name: "conv2_p"
  type: "Convolution"
  bottom: "pool1_p"
  top: "conv2_p"
  param {
    name: "conv2_w"
    lr_mult: 1
  }
  param {
    name: "conv2_b"
    lr_mult: 2
  }
  convolution_param {
    num_output: 50
    kernel_size: 5
    stride: 1
    weight_filler {
      type: "xavier"
    }
    bias_filler {
      type: "constant"
    }
  }
}
layer {
  name: "pool2_p"
  type: "Pooling"
  bottom: "conv2_p"
  top: "pool2_p"
  pooling_param {
    pool: MAX
    kernel_size: 2
    stride: 2
  }
}
layer {
  name: "ip1_p"
  type: "InnerProduct"
  bottom: "pool2_p"
  top: "ip1_p"
  param {
    name: "ip1_w"
    lr_mult: 1
  }
  param {
    name: "ip1_b"
    lr_mult: 2
  }
  inner_product_param {
    num_output: 500
    weight_filler {
      type: "xavier"
    }
    bias_filler {
      type: "constant"
    }
  }
}
layer {
  name: "relu1_p"
  type: "ReLU"
  bottom: "ip1_p"
  top: "ip1_p"
}
layer {
  name: "ip2_p"
  type: "InnerProduct"
  bottom: "ip1_p"
  top: "ip2_p"
  param {
    name: "ip2_w"
    lr_mult: 1
  }
  param {
    name: "ip2_b"
    lr_mult: 2
  }
  inner_product_param {
    num_output: 10
    weight_filler {
      type: "xavier"
    }
    bias_filler {
      type: "constant"
    }
  }
}
layer {
  name: "feat_p"
  type: "InnerProduct"
  bottom: "ip2_p"
  top: "feat_p"
  param {
    name: "feat_w"
    lr_mult: 1
  }
  param {
    name: "feat_b"
    lr_mult: 2
  }
  inner_product_param {
    num_output: 2
    weight_filler {
      type: "xavier"
    }
    bias_filler {
      type: "constant"
    }
  }
}
layer {
  name: "loss"
  type: "ContrastiveLoss"
  bottom: "feat"
  bottom: "feat_p"
  bottom: "sim"
  top: "loss"
  contrastive_loss_param {
    margin: 1
  }
}
I0420 21:49:44.767235 14434 layer_factory.hpp:77] Creating layer data_1
I0420 21:49:44.767422 14434 net.cpp:106] Creating Layer data_1
I0420 21:49:44.767465 14434 net.cpp:411] data_1 -> data
I0420 21:49:44.767552 14434 net.cpp:411] data_1 -> sim
I0420 21:49:44.767664 14434 image_data_layer.cpp:38] Opening file data/train1_ss.txt
I0420 21:49:44.813349 14434 image_data_layer.cpp:53] A total of 14000 images.
I0420 21:49:44.962510 14434 image_data_layer.cpp:80] output data size: 100,3,227,227
I0420 21:49:45.107693 14434 net.cpp:150] Setting up data_1
I0420 21:49:45.107789 14434 net.cpp:157] Top shape: 100 3 227 227 (15458700)
I0420 21:49:45.107818 14434 net.cpp:157] Top shape: 100 (100)
I0420 21:49:45.107842 14434 net.cpp:165] Memory required for data: 61835200
I0420 21:49:45.107870 14434 layer_factory.hpp:77] Creating layer data_2
I0420 21:49:45.107925 14434 net.cpp:106] Creating Layer data_2
I0420 21:49:45.107952 14434 net.cpp:411] data_2 -> data_p
I0420 21:49:45.107992 14434 net.cpp:411] data_2 -> dummy_labels
I0420 21:49:45.108023 14434 image_data_layer.cpp:38] Opening file data/train2_ss.txt
I0420 21:49:45.166698 14434 image_data_layer.cpp:53] A total of 14000 images.
I0420 21:49:45.192628 14434 image_data_layer.cpp:80] output data size: 100,3,227,227
I0420 21:49:45.313295 14434 net.cpp:150] Setting up data_2
I0420 21:49:45.313405 14434 net.cpp:157] Top shape: 100 3 227 227 (15458700)
I0420 21:49:45.313432 14434 net.cpp:157] Top shape: 100 (100)
I0420 21:49:45.313454 14434 net.cpp:165] Memory required for data: 123670400
I0420 21:49:45.313478 14434 layer_factory.hpp:77] Creating layer conv1
I0420 21:49:45.313551 14434 net.cpp:106] Creating Layer conv1
I0420 21:49:45.313580 14434 net.cpp:454] conv1 <- data
I0420 21:49:45.313618 14434 net.cpp:411] conv1 -> conv1
I0420 21:49:45.315304 14434 net.cpp:150] Setting up conv1
I0420 21:49:45.315352 14434 net.cpp:157] Top shape: 100 20 223 223 (99458000)
I0420 21:49:45.315379 14434 net.cpp:165] Memory required for data: 521502400
I0420 21:49:45.315443 14434 layer_factory.hpp:77] Creating layer pool1
I0420 21:49:45.315481 14434 net.cpp:106] Creating Layer pool1
I0420 21:49:45.315507 14434 net.cpp:454] pool1 <- conv1
I0420 21:49:45.315543 14434 net.cpp:411] pool1 -> pool1
I0420 21:49:45.315699 14434 net.cpp:150] Setting up pool1
I0420 21:49:45.315734 14434 net.cpp:157] Top shape: 100 20 112 112 (25088000)
I0420 21:49:45.315771 14434 net.cpp:165] Memory required for data: 621854400
I0420 21:49:45.315795 14434 layer_factory.hpp:77] Creating layer conv2
I0420 21:49:45.315840 14434 net.cpp:106] Creating Layer conv2
I0420 21:49:45.315871 14434 net.cpp:454] conv2 <- pool1
I0420 21:49:45.315932 14434 net.cpp:411] conv2 -> conv2
I0420 21:49:45.316987 14434 net.cpp:150] Setting up conv2
I0420 21:49:45.317024 14434 net.cpp:157] Top shape: 100 50 108 108 (58320000)
I0420 21:49:45.317046 14434 net.cpp:165] Memory required for data: 855134400
I0420 21:49:45.317073 14434 layer_factory.hpp:77] Creating layer pool2
I0420 21:49:45.317101 14434 net.cpp:106] Creating Layer pool2
I0420 21:49:45.317122 14434 net.cpp:454] pool2 <- conv2
I0420 21:49:45.317147 14434 net.cpp:411] pool2 -> pool2
I0420 21:49:45.317203 14434 net.cpp:150] Setting up pool2
I0420 21:49:45.317232 14434 net.cpp:157] Top shape: 100 50 54 54 (14580000)
I0420 21:49:45.317275 14434 net.cpp:165] Memory required for data: 913454400
I0420 21:49:45.317297 14434 layer_factory.hpp:77] Creating layer ip1
I0420 21:49:45.317343 14434 net.cpp:106] Creating Layer ip1
I0420 21:49:45.317368 14434 net.cpp:454] ip1 <- pool2
I0420 21:49:45.317394 14434 net.cpp:411] ip1 -> ip1
I0420 21:49:45.970720 14434 net.cpp:150] Setting up ip1
I0420 21:49:45.970805 14434 net.cpp:157] Top shape: 100 500 (50000)
I0420 21:49:45.970831 14434 net.cpp:165] Memory required for data: 913654400
I0420 21:49:45.970866 14434 layer_factory.hpp:77] Creating layer relu1
I0420 21:49:45.970897 14434 net.cpp:106] Creating Layer relu1
I0420 21:49:45.970921 14434 net.cpp:454] relu1 <- ip1
I0420 21:49:45.970949 14434 net.cpp:397] relu1 -> ip1 (in-place)
I0420 21:49:45.970984 14434 net.cpp:150] Setting up relu1
I0420 21:49:45.971009 14434 net.cpp:157] Top shape: 100 500 (50000)
I0420 21:49:45.971031 14434 net.cpp:165] Memory required for data: 913854400
I0420 21:49:45.971053 14434 layer_factory.hpp:77] Creating layer ip2
I0420 21:49:45.971083 14434 net.cpp:106] Creating Layer ip2
I0420 21:49:45.971107 14434 net.cpp:454] ip2 <- ip1
I0420 21:49:45.971132 14434 net.cpp:411] ip2 -> ip2
I0420 21:49:45.971278 14434 net.cpp:150] Setting up ip2
I0420 21:49:45.971310 14434 net.cpp:157] Top shape: 100 10 (1000)
I0420 21:49:45.971333 14434 net.cpp:165] Memory required for data: 913858400
I0420 21:49:45.971357 14434 layer_factory.hpp:77] Creating layer feat
I0420 21:49:45.971385 14434 net.cpp:106] Creating Layer feat
I0420 21:49:45.971407 14434 net.cpp:454] feat <- ip2
I0420 21:49:45.971433 14434 net.cpp:411] feat -> feat
I0420 21:49:45.971530 14434 net.cpp:150] Setting up feat
I0420 21:49:45.971561 14434 net.cpp:157] Top shape: 100 2 (200)
I0420 21:49:45.971583 14434 net.cpp:165] Memory required for data: 913859200
I0420 21:49:45.971609 14434 layer_factory.hpp:77] Creating layer conv1_p
I0420 21:49:45.971643 14434 net.cpp:106] Creating Layer conv1_p
I0420 21:49:45.971667 14434 net.cpp:454] conv1_p <- data_p
I0420 21:49:45.971693 14434 net.cpp:411] conv1_p -> conv1_p
I0420 21:49:45.971951 14434 net.cpp:150] Setting up conv1_p
I0420 21:49:45.971984 14434 net.cpp:157] Top shape: 100 20 223 223 (99458000)
I0420 21:49:45.972007 14434 net.cpp:165] Memory required for data: 1311691200
I0420 21:49:45.972028 14434 net.cpp:514] Sharing parameters 'conv1_w' owned by layer 'conv1', param index 0
I0420 21:49:45.972053 14434 net.cpp:514] Sharing parameters 'conv1_b' owned by layer 'conv1', param index 1
I0420 21:49:45.972074 14434 layer_factory.hpp:77] Creating layer pool1_p
I0420 21:49:45.972100 14434 net.cpp:106] Creating Layer pool1_p
I0420 21:49:45.972122 14434 net.cpp:454] pool1_p <- conv1_p
I0420 21:49:45.972149 14434 net.cpp:411] pool1_p -> pool1_p
I0420 21:49:45.972206 14434 net.cpp:150] Setting up pool1_p
I0420 21:49:45.972236 14434 net.cpp:157] Top shape: 100 20 112 112 (25088000)
I0420 21:49:45.972264 14434 net.cpp:165] Memory required for data: 1412043200
I0420 21:49:45.972285 14434 layer_factory.hpp:77] Creating layer conv2_p
I0420 21:49:45.972316 14434 net.cpp:106] Creating Layer conv2_p
I0420 21:49:45.972339 14434 net.cpp:454] conv2_p <- pool1_p
I0420 21:49:45.972367 14434 net.cpp:411] conv2_p -> conv2_p
I0420 21:49:45.972826 14434 net.cpp:150] Setting up conv2_p
I0420 21:49:45.972877 14434 net.cpp:157] Top shape: 100 50 108 108 (58320000)
I0420 21:49:45.972901 14434 net.cpp:165] Memory required for data: 1645323200
I0420 21:49:45.973007 14434 net.cpp:514] Sharing parameters 'conv2_w' owned by layer 'conv2', param index 0
I0420 21:49:45.973037 14434 net.cpp:514] Sharing parameters 'conv2_b' owned by layer 'conv2', param index 1
I0420 21:49:45.973060 14434 layer_factory.hpp:77] Creating layer pool2_p
I0420 21:49:45.973086 14434 net.cpp:106] Creating Layer pool2_p
I0420 21:49:45.973121 14434 net.cpp:454] pool2_p <- conv2_p
I0420 21:49:45.973146 14434 net.cpp:411] pool2_p -> pool2_p
I0420 21:49:45.973203 14434 net.cpp:150] Setting up pool2_p
I0420 21:49:45.973234 14434 net.cpp:157] Top shape: 100 50 54 54 (14580000)
I0420 21:49:45.973263 14434 net.cpp:165] Memory required for data: 1703643200
I0420 21:49:45.973285 14434 layer_factory.hpp:77] Creating layer ip1_p
I0420 21:49:45.973311 14434 net.cpp:106] Creating Layer ip1_p
I0420 21:49:45.973335 14434 net.cpp:454] ip1_p <- pool2_p
I0420 21:49:45.973374 14434 net.cpp:411] ip1_p -> ip1_p
I0420 21:49:46.638039 14434 net.cpp:150] Setting up ip1_p
I0420 21:49:46.638123 14434 net.cpp:157] Top shape: 100 500 (50000)
I0420 21:49:46.638147 14434 net.cpp:165] Memory required for data: 1703843200
I0420 21:49:46.638173 14434 net.cpp:514] Sharing parameters 'ip1_w' owned by layer 'ip1', param index 0
I0420 21:49:46.638197 14434 net.cpp:514] Sharing parameters 'ip1_b' owned by layer 'ip1', param index 1
I0420 21:49:46.638221 14434 layer_factory.hpp:77] Creating layer relu1_p
I0420 21:49:46.638254 14434 net.cpp:106] Creating Layer relu1_p
I0420 21:49:46.638279 14434 net.cpp:454] relu1_p <- ip1_p
I0420 21:49:46.638306 14434 net.cpp:397] relu1_p -> ip1_p (in-place)
I0420 21:49:46.638337 14434 net.cpp:150] Setting up relu1_p
I0420 21:49:46.638362 14434 net.cpp:157] Top shape: 100 500 (50000)
I0420 21:49:46.638384 14434 net.cpp:165] Memory required for data: 1704043200
I0420 21:49:46.638406 14434 layer_factory.hpp:77] Creating layer ip2_p
I0420 21:49:46.638438 14434 net.cpp:106] Creating Layer ip2_p
I0420 21:49:46.638463 14434 net.cpp:454] ip2_p <- ip1_p
I0420 21:49:46.638490 14434 net.cpp:411] ip2_p -> ip2_p
I0420 21:49:46.638635 14434 net.cpp:150] Setting up ip2_p
I0420 21:49:46.638667 14434 net.cpp:157] Top shape: 100 10 (1000)
I0420 21:49:46.638690 14434 net.cpp:165] Memory required for data: 1704047200
I0420 21:49:46.638715 14434 net.cpp:514] Sharing parameters 'ip2_w' owned by layer 'ip2', param index 0
I0420 21:49:46.638741 14434 net.cpp:514] Sharing parameters 'ip2_b' owned by layer 'ip2', param index 1
I0420 21:49:46.638762 14434 layer_factory.hpp:77] Creating layer feat_p
I0420 21:49:46.638792 14434 net.cpp:106] Creating Layer feat_p
I0420 21:49:46.638815 14434 net.cpp:454] feat_p <- ip2_p
I0420 21:49:46.638844 14434 net.cpp:411] feat_p -> feat_p
I0420 21:49:46.638944 14434 net.cpp:150] Setting up feat_p
I0420 21:49:46.638975 14434 net.cpp:157] Top shape: 100 2 (200)
I0420 21:49:46.638998 14434 net.cpp:165] Memory required for data: 1704048000
I0420 21:49:46.639019 14434 net.cpp:514] Sharing parameters 'feat_w' owned by layer 'feat', param index 0
I0420 21:49:46.639044 14434 net.cpp:514] Sharing parameters 'feat_b' owned by layer 'feat', param index 1
I0420 21:49:46.639065 14434 layer_factory.hpp:77] Creating layer loss
I0420 21:49:46.639091 14434 net.cpp:106] Creating Layer loss
…
