…
I0423 11:51:09.389050 44849 net.cpp:322] The NetState phase (0) differed from the phase (1) specified by a rule in layer data_2
I0423 11:51:09.389238 44849 net.cpp:49] Initializing net from parameters: 
name: "pirc_mnist_full_train_test"
state {
  phase: TRAIN
}
layer {
  name: "data_1"
  type: "ImageData"
  top: "data"
  top: "sim"
  include {
    phase: TRAIN
  }
  image_data_param {
    source: "data/train1_full_hardneg.txt"
    batch_size: 100
  }
}
layer {
  name: "data_2"
  type: "ImageData"
  top: "data_p"
  top: "dummy_labels"
  include {
    phase: TRAIN
  }
  image_data_param {
    source: "data/train2_full_hardneg.txt"
    batch_size: 100
  }
}
layer {
  name: "conv1"
  type: "Convolution"
  bottom: "data"
  top: "conv1"
  param {
    name: "conv1_w"
    lr_mult: 1
  }
  param {
    name: "conv1_b"
    lr_mult: 2
  }
  convolution_param {
    num_output: 20
    kernel_size: 5
    stride: 1
    weight_filler {
      type: "xavier"
    }
    bias_filler {
      type: "constant"
    }
  }
}
layer {
  name: "pool1"
  type: "Pooling"
  bottom: "conv1"
  top: "pool1"
  pooling_param {
    pool: MAX
    kernel_size: 2
    stride: 2
  }
}
layer {
  name: "conv2"
  type: "Convolution"
  bottom: "pool1"
  top: "conv2"
  param {
    name: "conv2_w"
    lr_mult: 1
  }
  param {
    name: "conv2_b"
    lr_mult: 2
  }
  convolution_param {
    num_output: 50
    kernel_size: 5
    stride: 1
    weight_filler {
      type: "xavier"
    }
    bias_filler {
      type: "constant"
    }
  }
}
layer {
  name: "pool2"
  type: "Pooling"
  bottom: "conv2"
  top: "pool2"
  pooling_param {
    pool: MAX
    kernel_size: 2
    stride: 2
  }
}
layer {
  name: "ip1"
  type: "InnerProduct"
  bottom: "pool2"
  top: "ip1"
  param {
    name: "ip1_w"
    lr_mult: 1
  }
  param {
    name: "ip1_b"
    lr_mult: 2
  }
  inner_product_param {
    num_output: 500
    weight_filler {
      type: "xavier"
    }
    bias_filler {
      type: "constant"
    }
  }
}
layer {
  name: "relu1"
  type: "ReLU"
  bottom: "ip1"
  top: "ip1"
}
layer {
  name: "ip2"
  type: "InnerProduct"
  bottom: "ip1"
  top: "ip2"
  param {
    name: "ip2_w"
    lr_mult: 1
  }
  param {
    name: "ip2_b"
    lr_mult: 2
  }
  inner_product_param {
    num_output: 10
    weight_filler {
      type: "xavier"
    }
    bias_filler {
      type: "constant"
    }
  }
}
layer {
  name: "feat"
  type: "InnerProduct"
  bottom: "ip2"
  top: "feat"
  param {
    name: "feat_w"
    lr_mult: 1
  }
  param {
    name: "feat_b"
    lr_mult: 2
  }
  inner_product_param {
    num_output: 2
    weight_filler {
      type: "xavier"
    }
    bias_filler {
      type: "constant"
    }
  }
}
layer {
  name: "conv1_p"
  type: "Convolution"
  bottom: "data_p"
  top: "conv1_p"
  param {
    name: "conv1_w"
    lr_mult: 1
  }
  param {
    name: "conv1_b"
    lr_mult: 2
  }
  convolution_param {
    num_output: 20
    kernel_size: 5
    stride: 1
    weight_filler {
      type: "xavier"
    }
    bias_filler {
      type: "constant"
    }
  }
}
layer {
  name: "pool1_p"
  type: "Pooling"
  bottom: "conv1_p"
  top: "pool1_p"
  pooling_param {
    pool: MAX
    kernel_size: 2
    stride: 2
  }
}
layer {
  name: "conv2_p"
  type: "Convolution"
  bottom: "pool1_p"
  top: "conv2_p"
  param {
    name: "conv2_w"
    lr_mult: 1
  }
  param {
    name: "conv2_b"
    lr_mult: 2
  }
  convolution_param {
    num_output: 50
    kernel_size: 5
    stride: 1
    weight_filler {
      type: "xavier"
    }
    bias_filler {
      type: "constant"
    }
  }
}
layer {
  name: "pool2_p"
  type: "Pooling"
  bottom: "conv2_p"
  top: "pool2_p"
  pooling_param {
    pool: MAX
    kernel_size: 2
    stride: 2
  }
}
layer {
  name: "ip1_p"
  type: "InnerProduct"
  bottom: "pool2_p"
  top: "ip1_p"
  param {
    name: "ip1_w"
    lr_mult: 1
  }
  param {
    name: "ip1_b"
    lr_mult: 2
  }
  inner_product_param {
    num_output: 500
    weight_filler {
      type: "xavier"
    }
    bias_filler {
      type: "constant"
    }
  }
}
layer {
  name: "relu1_p"
  type: "ReLU"
  bottom: "ip1_p"
  top: "ip1_p"
}
layer {
  name: "ip2_p"
  type: "InnerProduct"
  bottom: "ip1_p"
  top: "ip2_p"
  param {
    name: "ip2_w"
    lr_mult: 1
  }
  param {
    name: "ip2_b"
    lr_mult: 2
  }
  inner_product_param {
    num_output: 10
    weight_filler {
      type: "xavier"
    }
    bias_filler {
      type: "constant"
    }
  }
}
layer {
  name: "feat_p"
  type: "InnerProduct"
  bottom: "ip2_p"
  top: "feat_p"
  param {
    name: "feat_w"
    lr_mult: 1
  }
  param {
    name: "feat_b"
    lr_mult: 2
  }
  inner_product_param {
    num_output: 2
    weight_filler {
      type: "xavier"
    }
    bias_filler {
      type: "constant"
    }
  }
}
layer {
  name: "loss"
  type: "ContrastiveLoss"
  bottom: "feat"
  bottom: "feat_p"
  bottom: "sim"
  top: "loss"
  contrastive_loss_param {
    margin: 1
  }
}
I0423 11:51:09.389508 44849 layer_factory.hpp:77] Creating layer data_1
I0423 11:51:09.389690 44849 net.cpp:106] Creating Layer data_1
I0423 11:51:09.389745 44849 net.cpp:411] data_1 -> data
I0423 11:51:09.389839 44849 net.cpp:411] data_1 -> sim
I0423 11:51:09.389955 44849 image_data_layer.cpp:38] Opening file data/train1_full_hardneg.txt
I0423 11:51:09.421612 44849 image_data_layer.cpp:53] A total of 49000 images.
I0423 11:51:09.503679 44849 image_data_layer.cpp:80] output data size: 100,3,227,227
I0423 11:51:09.625694 44849 net.cpp:150] Setting up data_1
I0423 11:51:09.625784 44849 net.cpp:157] Top shape: 100 3 227 227 (15458700)
I0423 11:51:09.625814 44849 net.cpp:157] Top shape: 100 (100)
I0423 11:51:09.625836 44849 net.cpp:165] Memory required for data: 61835200
I0423 11:51:09.625864 44849 layer_factory.hpp:77] Creating layer data_2
I0423 11:51:09.625916 44849 net.cpp:106] Creating Layer data_2
I0423 11:51:09.625944 44849 net.cpp:411] data_2 -> data_p
I0423 11:51:09.625982 44849 net.cpp:411] data_2 -> dummy_labels
I0423 11:51:09.626013 44849 image_data_layer.cpp:38] Opening file data/train2_full_hardneg.txt
I0423 11:51:09.651701 44849 image_data_layer.cpp:53] A total of 49000 images.
I0423 11:51:09.656889 44849 image_data_layer.cpp:80] output data size: 100,3,227,227
I0423 11:51:09.780941 44849 net.cpp:150] Setting up data_2
I0423 11:51:09.781047 44849 net.cpp:157] Top shape: 100 3 227 227 (15458700)
I0423 11:51:09.781087 44849 net.cpp:157] Top shape: 100 (100)
I0423 11:51:09.781111 44849 net.cpp:165] Memory required for data: 123670400
I0423 11:51:09.781138 44849 layer_factory.hpp:77] Creating layer conv1
I0423 11:51:09.781239 44849 net.cpp:106] Creating Layer conv1
I0423 11:51:09.781268 44849 net.cpp:454] conv1 <- data
I0423 11:51:09.781309 44849 net.cpp:411] conv1 -> conv1
I0423 11:51:09.783020 44849 net.cpp:150] Setting up conv1
I0423 11:51:09.783074 44849 net.cpp:157] Top shape: 100 20 223 223 (99458000)
I0423 11:51:09.783098 44849 net.cpp:165] Memory required for data: 521502400
I0423 11:51:09.783150 44849 layer_factory.hpp:77] Creating layer pool1
I0423 11:51:09.783181 44849 net.cpp:106] Creating Layer pool1
I0423 11:51:09.783205 44849 net.cpp:454] pool1 <- conv1
I0423 11:51:09.783231 44849 net.cpp:411] pool1 -> pool1
I0423 11:51:09.783377 44849 net.cpp:150] Setting up pool1
I0423 11:51:09.783408 44849 net.cpp:157] Top shape: 100 20 112 112 (25088000)
I0423 11:51:09.783430 44849 net.cpp:165] Memory required for data: 621854400
I0423 11:51:09.783452 44849 layer_factory.hpp:77] Creating layer conv2
I0423 11:51:09.783481 44849 net.cpp:106] Creating Layer conv2
I0423 11:51:09.783526 44849 net.cpp:454] conv2 <- pool1
I0423 11:51:09.783603 44849 net.cpp:411] conv2 -> conv2
I0423 11:51:09.784662 44849 net.cpp:150] Setting up conv2
I0423 11:51:09.784773 44849 net.cpp:157] Top shape: 100 50 108 108 (58320000)
I0423 11:51:09.784801 44849 net.cpp:165] Memory required for data: 855134400
I0423 11:51:09.784838 44849 layer_factory.hpp:77] Creating layer pool2
I0423 11:51:09.784868 44849 net.cpp:106] Creating Layer pool2
I0423 11:51:09.784893 44849 net.cpp:454] pool2 <- conv2
I0423 11:51:09.784919 44849 net.cpp:411] pool2 -> pool2
I0423 11:51:09.784977 44849 net.cpp:150] Setting up pool2
I0423 11:51:09.785022 44849 net.cpp:157] Top shape: 100 50 54 54 (14580000)
I0423 11:51:09.785046 44849 net.cpp:165] Memory required for data: 913454400
I0423 11:51:09.785071 44849 layer_factory.hpp:77] Creating layer ip1
I0423 11:51:09.785117 44849 net.cpp:106] Creating Layer ip1
I0423 11:51:09.785143 44849 net.cpp:454] ip1 <- pool2
I0423 11:51:09.785171 44849 net.cpp:411] ip1 -> ip1
I0423 11:51:10.500442 44849 net.cpp:150] Setting up ip1
I0423 11:51:10.500571 44849 net.cpp:157] Top shape: 100 500 (50000)
I0423 11:51:10.500597 44849 net.cpp:165] Memory required for data: 913654400
I0423 11:51:10.500638 44849 layer_factory.hpp:77] Creating layer relu1
I0423 11:51:10.500686 44849 net.cpp:106] Creating Layer relu1
I0423 11:51:10.500712 44849 net.cpp:454] relu1 <- ip1
I0423 11:51:10.500758 44849 net.cpp:397] relu1 -> ip1 (in-place)
I0423 11:51:10.500797 44849 net.cpp:150] Setting up relu1
I0423 11:51:10.500839 44849 net.cpp:157] Top shape: 100 500 (50000)
I0423 11:51:10.500865 44849 net.cpp:165] Memory required for data: 913854400
I0423 11:51:10.500890 44849 layer_factory.hpp:77] Creating layer ip2
I0423 11:51:10.500926 44849 net.cpp:106] Creating Layer ip2
I0423 11:51:10.500952 44849 net.cpp:454] ip2 <- ip1
I0423 11:51:10.500982 44849 net.cpp:411] ip2 -> ip2
I0423 11:51:10.501168 44849 net.cpp:150] Setting up ip2
I0423 11:51:10.501204 44849 net.cpp:157] Top shape: 100 10 (1000)
I0423 11:51:10.501229 44849 net.cpp:165] Memory required for data: 913858400
I0423 11:51:10.501255 44849 layer_factory.hpp:77] Creating layer feat
I0423 11:51:10.501283 44849 net.cpp:106] Creating Layer feat
I0423 11:51:10.501308 44849 net.cpp:454] feat <- ip2
I0423 11:51:10.501335 44849 net.cpp:411] feat -> feat
I0423 11:51:10.501488 44849 net.cpp:150] Setting up feat
I0423 11:51:10.501523 44849 net.cpp:157] Top shape: 100 2 (200)
I0423 11:51:10.501545 44849 net.cpp:165] Memory required for data: 913859200
I0423 11:51:10.501584 44849 layer_factory.hpp:77] Creating layer conv1_p
I0423 11:51:10.501618 44849 net.cpp:106] Creating Layer conv1_p
I0423 11:51:10.501646 44849 net.cpp:454] conv1_p <- data_p
I0423 11:51:10.501672 44849 net.cpp:411] conv1_p -> conv1_p
I0423 11:51:10.501981 44849 net.cpp:150] Setting up conv1_p
I0423 11:51:10.502033 44849 net.cpp:157] Top shape: 100 20 223 223 (99458000)
I0423 11:51:10.502058 44849 net.cpp:165] Memory required for data: 1311691200
I0423 11:51:10.502082 44849 net.cpp:514] Sharing parameters 'conv1_w' owned by layer 'conv1', param index 0
I0423 11:51:10.502106 44849 net.cpp:514] Sharing parameters 'conv1_b' owned by layer 'conv1', param index 1
I0423 11:51:10.502131 44849 layer_factory.hpp:77] Creating layer pool1_p
I0423 11:51:10.502169 44849 net.cpp:106] Creating Layer pool1_p
I0423 11:51:10.502194 44849 net.cpp:454] pool1_p <- conv1_p
I0423 11:51:10.502233 44849 net.cpp:411] pool1_p -> pool1_p
I0423 11:51:10.502292 44849 net.cpp:150] Setting up pool1_p
I0423 11:51:10.502323 44849 net.cpp:157] Top shape: 100 20 112 112 (25088000)
I0423 11:51:10.502357 44849 net.cpp:165] Memory required for data: 1412043200
I0423 11:51:10.502379 44849 layer_factory.hpp:77] Creating layer conv2_p
I0423 11:51:10.502423 44849 net.cpp:106] Creating Layer conv2_p
I0423 11:51:10.502449 44849 net.cpp:454] conv2_p <- pool1_p
I0423 11:51:10.502490 44849 net.cpp:411] conv2_p -> conv2_p
I0423 11:51:10.502940 44849 net.cpp:150] Setting up conv2_p
I0423 11:51:10.502976 44849 net.cpp:157] Top shape: 100 50 108 108 (58320000)
I0423 11:51:10.503021 44849 net.cpp:165] Memory required for data: 1645323200
I0423 11:51:10.503123 44849 net.cpp:514] Sharing parameters 'conv2_w' owned by layer 'conv2', param index 0
I0423 11:51:10.503150 44849 net.cpp:514] Sharing parameters 'conv2_b' owned by layer 'conv2', param index 1
I0423 11:51:10.503175 44849 layer_factory.hpp:77] Creating layer pool2_p
I0423 11:51:10.503201 44849 net.cpp:106] Creating Layer pool2_p
I0423 11:51:10.504561 44849 net.cpp:454] pool2_p <- conv2_p
I0423 11:51:10.507697 44849 net.cpp:411] pool2_p -> pool2_p
I0423 11:51:10.507865 44849 net.cpp:150] Setting up pool2_p
I0423 11:51:10.507906 44849 net.cpp:157] Top shape: 100 50 54 54 (14580000)
I0423 11:51:10.507930 44849 net.cpp:165] Memory required for data: 1703643200
I0423 11:51:10.507993 44849 layer_factory.hpp:77] Creating layer ip1_p
I0423 11:51:10.508039 44849 net.cpp:106] Creating Layer ip1_p
I0423 11:51:10.508065 44849 net.cpp:454] ip1_p <- pool2_p
I0423 11:51:10.508093 44849 net.cpp:411] ip1_p -> ip1_p
I0423 11:51:11.193811 44849 net.cpp:150] Setting up ip1_p
I0423 11:51:11.193898 44849 net.cpp:157] Top shape: 100 500 (50000)
I0423 11:51:11.193927 44849 net.cpp:165] Memory required for data: 1703843200
I0423 11:51:11.193955 44849 net.cpp:514] Sharing parameters 'ip1_w' owned by layer 'ip1', param index 0
I0423 11:51:11.193982 44849 net.cpp:514] Sharing parameters 'ip1_b' owned by layer 'ip1', param index 1
I0423 11:51:11.194020 44849 layer_factory.hpp:77] Creating layer relu1_p
I0423 11:51:11.194053 44849 net.cpp:106] Creating Layer relu1_p
I0423 11:51:11.194080 44849 net.cpp:454] relu1_p <- ip1_p
I0423 11:51:11.194110 44849 net.cpp:397] relu1_p -> ip1_p (in-place)
I0423 11:51:11.194161 44849 net.cpp:150] Setting up relu1_p
I0423 11:51:11.194192 44849 net.cpp:157] Top shape: 100 500 (50000)
I0423 11:51:11.194216 44849 net.cpp:165] Memory required for data: 1704043200
I0423 11:51:11.194239 44849 layer_factory.hpp:77] Creating layer ip2_p
I0423 11:51:11.194275 44849 net.cpp:106] Creating Layer ip2_p
I0423 11:51:11.194303 44849 net.cpp:454] ip2_p <- ip1_p
I0423 11:51:11.194330 44849 net.cpp:411] ip2_p -> ip2_p
I0423 11:51:11.194519 44849 net.cpp:150] Setting up ip2_p
I0423 11:51:11.194561 44849 net.cpp:157] Top shape: 100 10 (1000)
I0423 11:51:11.194588 44849 net.cpp:165] Memory required for data: 1704047200
I0423 11:51:11.194623 44849 net.cpp:514] Sharing parameters 'ip2_w' owned by layer 'ip2', param index 0
I0423 11:51:11.194653 44849 net.cpp:514] Sharing parameters 'ip2_b' owned by layer 'ip2', param index 1
I0423 11:51:11.194677 44849 layer_factory.hpp:77] Creating layer feat_p
I0423 11:51:11.194705 44849 net.cpp:106] Creating Layer feat_p
I0423 11:51:11.194731 44849 net.cpp:454] feat_p <- ip2_p
I0423 11:51:11.194774 44849 net.cpp:411] feat_p -> feat_p
I0423 11:51:11.194895 44849 net.cpp:150] Setting up feat_p
I0423 11:51:11.194938 44849 net.cpp:157] Top shape: 100 2 (200)
I0423 11:51:11.194963 44849 net.cpp:165] Memory required for data: 1704048000
I0423 11:51:11.194988 44849 net.cpp:514] Sharing parameters 'feat_w' owned by layer 'feat', param index 0
I0423 11:51:11.195016 44849 net.cpp:514] Sharing parameters 'feat_b' owned by layer 'feat', param index 1
I0423 11:51:11.195041 44849 layer_factory.hpp:77] Creating layer loss
I0423 11:51:11.195070 44849 net.cpp:106] Creating Layer loss
…
