…
I0420 21:49:51.448740 11455 net.cpp:322] The NetState phase (0) differed from the phase (1) specified by a rule in layer data_2
I0420 21:49:51.448930 11455 net.cpp:49] Initializing net from parameters: 
name: "pirc_mnist_full_train_test"
state {
  phase: TRAIN
}
layer {
  name: "data_1"
  type: "ImageData"
  top: "data"
  top: "sim"
  include {
    phase: TRAIN
  }
  image_data_param {
    source: "data/train1_full.txt"
    batch_size: 100
  }
}
layer {
  name: "data_2"
  type: "ImageData"
  top: "data_p"
  top: "dummy_labels"
  include {
    phase: TRAIN
  }
  image_data_param {
    source: "data/train2_full.txt"
    batch_size: 100
  }
}
layer {
  name: "conv1"
  type: "Convolution"
  bottom: "data"
  top: "conv1"
  param {
    name: "conv1_w"
    lr_mult: 1
  }
  param {
    name: "conv1_b"
    lr_mult: 2
  }
  convolution_param {
    num_output: 20
    kernel_size: 5
    stride: 1
    weight_filler {
      type: "xavier"
    }
    bias_filler {
      type: "constant"
    }
  }
}
layer {
  name: "pool1"
  type: "Pooling"
  bottom: "conv1"
  top: "pool1"
  pooling_param {
    pool: MAX
    kernel_size: 2
    stride: 2
  }
}
layer {
  name: "conv2"
  type: "Convolution"
  bottom: "pool1"
  top: "conv2"
  param {
    name: "conv2_w"
    lr_mult: 1
  }
  param {
    name: "conv2_b"
    lr_mult: 2
  }
  convolution_param {
    num_output: 50
    kernel_size: 5
    stride: 1
    weight_filler {
      type: "xavier"
    }
    bias_filler {
      type: "constant"
    }
  }
}
layer {
  name: "pool2"
  type: "Pooling"
  bottom: "conv2"
  top: "pool2"
  pooling_param {
    pool: MAX
    kernel_size: 2
    stride: 2
  }
}
layer {
  name: "ip1"
  type: "InnerProduct"
  bottom: "pool2"
  top: "ip1"
  param {
    name: "ip1_w"
    lr_mult: 1
  }
  param {
    name: "ip1_b"
    lr_mult: 2
  }
  inner_product_param {
    num_output: 500
    weight_filler {
      type: "xavier"
    }
    bias_filler {
      type: "constant"
    }
  }
}
layer {
  name: "relu1"
  type: "ReLU"
  bottom: "ip1"
  top: "ip1"
}
layer {
  name: "ip2"
  type: "InnerProduct"
  bottom: "ip1"
  top: "ip2"
  param {
    name: "ip2_w"
    lr_mult: 1
  }
  param {
    name: "ip2_b"
    lr_mult: 2
  }
  inner_product_param {
    num_output: 10
    weight_filler {
      type: "xavier"
    }
    bias_filler {
      type: "constant"
    }
  }
}
layer {
  name: "feat"
  type: "InnerProduct"
  bottom: "ip2"
  top: "feat"
  param {
    name: "feat_w"
    lr_mult: 1
  }
  param {
    name: "feat_b"
    lr_mult: 2
  }
  inner_product_param {
    num_output: 2
    weight_filler {
      type: "xavier"
    }
    bias_filler {
      type: "constant"
    }
  }
}
layer {
  name: "conv1_p"
  type: "Convolution"
  bottom: "data_p"
  top: "conv1_p"
  param {
    name: "conv1_w"
    lr_mult: 1
  }
  param {
    name: "conv1_b"
    lr_mult: 2
  }
  convolution_param {
    num_output: 20
    kernel_size: 5
    stride: 1
    weight_filler {
      type: "xavier"
    }
    bias_filler {
      type: "constant"
    }
  }
}
layer {
  name: "pool1_p"
  type: "Pooling"
  bottom: "conv1_p"
  top: "pool1_p"
  pooling_param {
    pool: MAX
    kernel_size: 2
    stride: 2
  }
}
layer {
  name: "conv2_p"
  type: "Convolution"
  bottom: "pool1_p"
  top: "conv2_p"
  param {
    name: "conv2_w"
    lr_mult: 1
  }
  param {
    name: "conv2_b"
    lr_mult: 2
  }
  convolution_param {
    num_output: 50
    kernel_size: 5
    stride: 1
    weight_filler {
      type: "xavier"
    }
    bias_filler {
      type: "constant"
    }
  }
}
layer {
  name: "pool2_p"
  type: "Pooling"
  bottom: "conv2_p"
  top: "pool2_p"
  pooling_param {
    pool: MAX
    kernel_size: 2
    stride: 2
  }
}
layer {
  name: "ip1_p"
  type: "InnerProduct"
  bottom: "pool2_p"
  top: "ip1_p"
  param {
    name: "ip1_w"
    lr_mult: 1
  }
  param {
    name: "ip1_b"
    lr_mult: 2
  }
  inner_product_param {
    num_output: 500
    weight_filler {
      type: "xavier"
    }
    bias_filler {
      type: "constant"
    }
  }
}
layer {
  name: "relu1_p"
  type: "ReLU"
  bottom: "ip1_p"
  top: "ip1_p"
}
layer {
  name: "ip2_p"
  type: "InnerProduct"
  bottom: "ip1_p"
  top: "ip2_p"
  param {
    name: "ip2_w"
    lr_mult: 1
  }
  param {
    name: "ip2_b"
    lr_mult: 2
  }
  inner_product_param {
    num_output: 10
    weight_filler {
      type: "xavier"
    }
    bias_filler {
      type: "constant"
    }
  }
}
layer {
  name: "feat_p"
  type: "InnerProduct"
  bottom: "ip2_p"
  top: "feat_p"
  param {
    name: "feat_w"
    lr_mult: 1
  }
  param {
    name: "feat_b"
    lr_mult: 2
  }
  inner_product_param {
    num_output: 2
    weight_filler {
      type: "xavier"
    }
    bias_filler {
      type: "constant"
    }
  }
}
layer {
  name: "loss"
  type: "ContrastiveLoss"
  bottom: "feat"
  bottom: "feat_p"
  bottom: "sim"
  top: "loss"
  contrastive_loss_param {
    margin: 1
  }
}
I0420 21:49:51.449210 11455 layer_factory.hpp:77] Creating layer data_1
I0420 21:49:51.449393 11455 net.cpp:106] Creating Layer data_1
I0420 21:49:51.449436 11455 net.cpp:411] data_1 -> data
I0420 21:49:51.449520 11455 net.cpp:411] data_1 -> sim
I0420 21:49:51.449638 11455 image_data_layer.cpp:38] Opening file data/train1_full.txt
I0420 21:49:51.496362 11455 image_data_layer.cpp:53] A total of 14000 images.
I0420 21:49:51.625324 11455 image_data_layer.cpp:80] output data size: 100,3,227,227
I0420 21:49:51.747900 11455 net.cpp:150] Setting up data_1
I0420 21:49:51.747992 11455 net.cpp:157] Top shape: 100 3 227 227 (15458700)
I0420 21:49:51.748020 11455 net.cpp:157] Top shape: 100 (100)
I0420 21:49:51.748044 11455 net.cpp:165] Memory required for data: 61835200
I0420 21:49:51.748070 11455 layer_factory.hpp:77] Creating layer data_2
I0420 21:49:51.748124 11455 net.cpp:106] Creating Layer data_2
I0420 21:49:51.748153 11455 net.cpp:411] data_2 -> data_p
I0420 21:49:51.748193 11455 net.cpp:411] data_2 -> dummy_labels
I0420 21:49:51.748224 11455 image_data_layer.cpp:38] Opening file data/train2_full.txt
I0420 21:49:51.826344 11455 image_data_layer.cpp:53] A total of 14000 images.
I0420 21:49:51.830479 11455 image_data_layer.cpp:80] output data size: 100,3,227,227
I0420 21:49:51.952067 11455 net.cpp:150] Setting up data_2
I0420 21:49:51.952203 11455 net.cpp:157] Top shape: 100 3 227 227 (15458700)
I0420 21:49:51.952246 11455 net.cpp:157] Top shape: 100 (100)
I0420 21:49:51.952270 11455 net.cpp:165] Memory required for data: 123670400
I0420 21:49:51.952307 11455 layer_factory.hpp:77] Creating layer conv1
I0420 21:49:51.952394 11455 net.cpp:106] Creating Layer conv1
I0420 21:49:51.952428 11455 net.cpp:454] conv1 <- data
I0420 21:49:51.952484 11455 net.cpp:411] conv1 -> conv1
I0420 21:49:51.954313 11455 net.cpp:150] Setting up conv1
I0420 21:49:51.954354 11455 net.cpp:157] Top shape: 100 20 223 223 (99458000)
I0420 21:49:51.954375 11455 net.cpp:165] Memory required for data: 521502400
I0420 21:49:51.954423 11455 layer_factory.hpp:77] Creating layer pool1
I0420 21:49:51.954453 11455 net.cpp:106] Creating Layer pool1
I0420 21:49:51.954475 11455 net.cpp:454] pool1 <- conv1
I0420 21:49:51.954499 11455 net.cpp:411] pool1 -> pool1
I0420 21:49:51.954663 11455 net.cpp:150] Setting up pool1
I0420 21:49:51.954695 11455 net.cpp:157] Top shape: 100 20 112 112 (25088000)
I0420 21:49:51.954730 11455 net.cpp:165] Memory required for data: 621854400
I0420 21:49:51.954752 11455 layer_factory.hpp:77] Creating layer conv2
I0420 21:49:51.954799 11455 net.cpp:106] Creating Layer conv2
I0420 21:49:51.954828 11455 net.cpp:454] conv2 <- pool1
I0420 21:49:51.954901 11455 net.cpp:411] conv2 -> conv2
I0420 21:49:51.956416 11455 net.cpp:150] Setting up conv2
I0420 21:49:51.956465 11455 net.cpp:157] Top shape: 100 50 108 108 (58320000)
I0420 21:49:51.956490 11455 net.cpp:165] Memory required for data: 855134400
I0420 21:49:51.956529 11455 layer_factory.hpp:77] Creating layer pool2
I0420 21:49:51.956557 11455 net.cpp:106] Creating Layer pool2
I0420 21:49:51.956580 11455 net.cpp:454] pool2 <- conv2
I0420 21:49:51.956614 11455 net.cpp:411] pool2 -> pool2
I0420 21:49:51.956686 11455 net.cpp:150] Setting up pool2
I0420 21:49:51.956719 11455 net.cpp:157] Top shape: 100 50 54 54 (14580000)
I0420 21:49:51.956743 11455 net.cpp:165] Memory required for data: 913454400
I0420 21:49:51.956764 11455 layer_factory.hpp:77] Creating layer ip1
I0420 21:49:51.956825 11455 net.cpp:106] Creating Layer ip1
I0420 21:49:51.956851 11455 net.cpp:454] ip1 <- pool2
I0420 21:49:51.956876 11455 net.cpp:411] ip1 -> ip1
I0420 21:49:52.602509 11455 net.cpp:150] Setting up ip1
I0420 21:49:52.602639 11455 net.cpp:157] Top shape: 100 500 (50000)
I0420 21:49:52.602670 11455 net.cpp:165] Memory required for data: 913654400
I0420 21:49:52.602705 11455 layer_factory.hpp:77] Creating layer relu1
I0420 21:49:52.602747 11455 net.cpp:106] Creating Layer relu1
I0420 21:49:52.602771 11455 net.cpp:454] relu1 <- ip1
I0420 21:49:52.602797 11455 net.cpp:397] relu1 -> ip1 (in-place)
I0420 21:49:52.602833 11455 net.cpp:150] Setting up relu1
I0420 21:49:52.602870 11455 net.cpp:157] Top shape: 100 500 (50000)
I0420 21:49:52.602910 11455 net.cpp:165] Memory required for data: 913854400
I0420 21:49:52.602931 11455 layer_factory.hpp:77] Creating layer ip2
I0420 21:49:52.602980 11455 net.cpp:106] Creating Layer ip2
I0420 21:49:52.603005 11455 net.cpp:454] ip2 <- ip1
I0420 21:49:52.603032 11455 net.cpp:411] ip2 -> ip2
I0420 21:49:52.603201 11455 net.cpp:150] Setting up ip2
I0420 21:49:52.603237 11455 net.cpp:157] Top shape: 100 10 (1000)
I0420 21:49:52.603271 11455 net.cpp:165] Memory required for data: 913858400
I0420 21:49:52.603299 11455 layer_factory.hpp:77] Creating layer feat
I0420 21:49:52.603328 11455 net.cpp:106] Creating Layer feat
I0420 21:49:52.603353 11455 net.cpp:454] feat <- ip2
I0420 21:49:52.603390 11455 net.cpp:411] feat -> feat
I0420 21:49:52.603509 11455 net.cpp:150] Setting up feat
I0420 21:49:52.603541 11455 net.cpp:157] Top shape: 100 2 (200)
I0420 21:49:52.603564 11455 net.cpp:165] Memory required for data: 913859200
I0420 21:49:52.603600 11455 layer_factory.hpp:77] Creating layer conv1_p
I0420 21:49:52.603636 11455 net.cpp:106] Creating Layer conv1_p
I0420 21:49:52.603660 11455 net.cpp:454] conv1_p <- data_p
I0420 21:49:52.603687 11455 net.cpp:411] conv1_p -> conv1_p
I0420 21:49:52.604043 11455 net.cpp:150] Setting up conv1_p
I0420 21:49:52.604091 11455 net.cpp:157] Top shape: 100 20 223 223 (99458000)
I0420 21:49:52.604115 11455 net.cpp:165] Memory required for data: 1311691200
I0420 21:49:52.604148 11455 net.cpp:514] Sharing parameters 'conv1_w' owned by layer 'conv1', param index 0
I0420 21:49:52.604171 11455 net.cpp:514] Sharing parameters 'conv1_b' owned by layer 'conv1', param index 1
I0420 21:49:52.604194 11455 layer_factory.hpp:77] Creating layer pool1_p
I0420 21:49:52.604221 11455 net.cpp:106] Creating Layer pool1_p
I0420 21:49:52.604259 11455 net.cpp:454] pool1_p <- conv1_p
I0420 21:49:52.604285 11455 net.cpp:411] pool1_p -> pool1_p
I0420 21:49:52.604364 11455 net.cpp:150] Setting up pool1_p
I0420 21:49:52.604399 11455 net.cpp:157] Top shape: 100 20 112 112 (25088000)
I0420 21:49:52.604449 11455 net.cpp:165] Memory required for data: 1412043200
I0420 21:49:52.604485 11455 layer_factory.hpp:77] Creating layer conv2_p
I0420 21:49:52.604519 11455 net.cpp:106] Creating Layer conv2_p
I0420 21:49:52.604560 11455 net.cpp:454] conv2_p <- pool1_p
I0420 21:49:52.604610 11455 net.cpp:411] conv2_p -> conv2_p
I0420 21:49:52.605002 11455 net.cpp:150] Setting up conv2_p
I0420 21:49:52.605049 11455 net.cpp:157] Top shape: 100 50 108 108 (58320000)
I0420 21:49:52.605082 11455 net.cpp:165] Memory required for data: 1645323200
I0420 21:49:52.605157 11455 net.cpp:514] Sharing parameters 'conv2_w' owned by layer 'conv2', param index 0
I0420 21:49:52.605183 11455 net.cpp:514] Sharing parameters 'conv2_b' owned by layer 'conv2', param index 1
I0420 21:49:52.605206 11455 layer_factory.hpp:77] Creating layer pool2_p
I0420 21:49:52.605228 11455 net.cpp:106] Creating Layer pool2_p
I0420 21:49:52.605252 11455 net.cpp:454] pool2_p <- conv2_p
I0420 21:49:52.605275 11455 net.cpp:411] pool2_p -> pool2_p
I0420 21:49:52.605350 11455 net.cpp:150] Setting up pool2_p
I0420 21:49:52.605381 11455 net.cpp:157] Top shape: 100 50 54 54 (14580000)
I0420 21:49:52.605403 11455 net.cpp:165] Memory required for data: 1703643200
I0420 21:49:52.605424 11455 layer_factory.hpp:77] Creating layer ip1_p
I0420 21:49:52.605453 11455 net.cpp:106] Creating Layer ip1_p
I0420 21:49:52.605476 11455 net.cpp:454] ip1_p <- pool2_p
I0420 21:49:52.605504 11455 net.cpp:411] ip1_p -> ip1_p
I0420 21:49:53.253515 11455 net.cpp:150] Setting up ip1_p
I0420 21:49:53.253625 11455 net.cpp:157] Top shape: 100 500 (50000)
I0420 21:49:53.253653 11455 net.cpp:165] Memory required for data: 1703843200
I0420 21:49:53.253692 11455 net.cpp:514] Sharing parameters 'ip1_w' owned by layer 'ip1', param index 0
I0420 21:49:53.253718 11455 net.cpp:514] Sharing parameters 'ip1_b' owned by layer 'ip1', param index 1
I0420 21:49:53.253742 11455 layer_factory.hpp:77] Creating layer relu1_p
I0420 21:49:53.253772 11455 net.cpp:106] Creating Layer relu1_p
I0420 21:49:53.253809 11455 net.cpp:454] relu1_p <- ip1_p
I0420 21:49:53.253841 11455 net.cpp:397] relu1_p -> ip1_p (in-place)
I0420 21:49:53.253875 11455 net.cpp:150] Setting up relu1_p
I0420 21:49:53.253906 11455 net.cpp:157] Top shape: 100 500 (50000)
I0420 21:49:53.253926 11455 net.cpp:165] Memory required for data: 1704043200
I0420 21:49:53.253947 11455 layer_factory.hpp:77] Creating layer ip2_p
I0420 21:49:53.253981 11455 net.cpp:106] Creating Layer ip2_p
I0420 21:49:53.254006 11455 net.cpp:454] ip2_p <- ip1_p
I0420 21:49:53.254031 11455 net.cpp:411] ip2_p -> ip2_p
I0420 21:49:53.254184 11455 net.cpp:150] Setting up ip2_p
I0420 21:49:53.254216 11455 net.cpp:157] Top shape: 100 10 (1000)
I0420 21:49:53.254240 11455 net.cpp:165] Memory required for data: 1704047200
I0420 21:49:53.254263 11455 net.cpp:514] Sharing parameters 'ip2_w' owned by layer 'ip2', param index 0
I0420 21:49:53.254288 11455 net.cpp:514] Sharing parameters 'ip2_b' owned by layer 'ip2', param index 1
I0420 21:49:53.254310 11455 layer_factory.hpp:77] Creating layer feat_p
I0420 21:49:53.254338 11455 net.cpp:106] Creating Layer feat_p
I0420 21:49:53.254376 11455 net.cpp:454] feat_p <- ip2_p
I0420 21:49:53.254405 11455 net.cpp:411] feat_p -> feat_p
I0420 21:49:53.254554 11455 net.cpp:150] Setting up feat_p
I0420 21:49:53.254597 11455 net.cpp:157] Top shape: 100 2 (200)
I0420 21:49:53.254637 11455 net.cpp:165] Memory required for data: 1704048000
I0420 21:49:53.254659 11455 net.cpp:514] Sharing parameters 'feat_w' owned by layer 'feat', param index 0
I0420 21:49:53.254696 11455 net.cpp:514] Sharing parameters 'feat_b' owned by layer 'feat', param index 1
I0420 21:49:53.254727 11455 layer_factory.hpp:77] Creating layer loss
I0420 21:49:53.254765 11455 net.cpp:106] Creating Layer loss
…
