…
I0415 18:07:03.992624 25957 net.cpp:322] The NetState phase (0) differed from the phase (1) specified by a rule in layer data_2
I0415 18:07:03.992787 25957 net.cpp:49] Initializing net from parameters: 
name: "nih_pirc_mnist_full_train_test"
state {
  phase: TRAIN
}
layer {
  name: "data_1"
  type: "ImageData"
  top: "data"
  top: "sim"
  include {
    phase: TRAIN
  }
  image_data_param {
    source: "./data/train1_full.txt"
    batch_size: 100
  }
}
layer {
  name: "data_2"
  type: "ImageData"
  top: "data_p"
  top: "dummy_labels"
  include {
    phase: TRAIN
  }
  image_data_param {
    source: "./data/train2_full.txt"
    batch_size: 100
  }
}
layer {
  name: "conv1"
  type: "Convolution"
  bottom: "data"
  top: "conv1"
  param {
    name: "conv1_w"
    lr_mult: 1
  }
  param {
    name: "conv1_b"
    lr_mult: 2
  }
  convolution_param {
    num_output: 20
    kernel_size: 5
    stride: 1
    weight_filler {
      type: "xavier"
    }
    bias_filler {
      type: "constant"
    }
  }
}
layer {
  name: "pool1"
  type: "Pooling"
  bottom: "conv1"
  top: "pool2"
  pooling_param {
    pool: MAX
    kernel_size: 2
    stride: 2
  }
}
layer {
  name: "ip1"
  type: "InnerProduct"
  bottom: "pool2"
  top: "ip1"
  param {
    name: "ip1_w"
    lr_mult: 1
  }
  param {
    name: "ip1_b"
    lr_mult: 2
  }
  inner_product_param {
    num_output: 500
    weight_filler {
      type: "xavier"
    }
    bias_filler {
      type: "constant"
    }
  }
}
layer {
  name: "relu1"
  type: "ReLU"
  bottom: "ip1"
  top: "ip2"
}
layer {
  name: "feat"
  type: "InnerProduct"
  bottom: "ip2"
  top: "feat"
  param {
    name: "feat_w"
    lr_mult: 1
  }
  param {
    name: "feat_b"
    lr_mult: 2
  }
  inner_product_param {
    num_output: 2
    weight_filler {
      type: "xavier"
    }
    bias_filler {
      type: "constant"
    }
  }
}
layer {
  name: "conv1_p"
  type: "Convolution"
  bottom: "data_p"
  top: "conv1_p"
  param {
    name: "conv1_w"
    lr_mult: 1
  }
  param {
    name: "conv1_b"
    lr_mult: 2
  }
  convolution_param {
    num_output: 20
    kernel_size: 5
    stride: 1
    weight_filler {
      type: "xavier"
    }
    bias_filler {
      type: "constant"
    }
  }
}
layer {
  name: "pool1_p"
  type: "Pooling"
  bottom: "conv1_p"
  top: "pool2_p"
  pooling_param {
    pool: MAX
    kernel_size: 2
    stride: 2
  }
}
layer {
  name: "ip1_p"
  type: "InnerProduct"
  bottom: "pool2_p"
  top: "ip1_p"
  param {
    name: "ip1_w"
    lr_mult: 1
  }
  param {
    name: "ip1_b"
    lr_mult: 2
  }
  inner_product_param {
    num_output: 500
    weight_filler {
      type: "xavier"
    }
    bias_filler {
      type: "constant"
    }
  }
}
layer {
  name: "relu1_p"
  type: "ReLU"
  bottom: "ip1_p"
  top: "ip2_p"
}
layer {
  name: "feat_p"
  type: "InnerProduct"
  bottom: "ip2_p"
  top: "feat_p"
  param {
    name: "feat_w"
    lr_mult: 1
  }
  param {
    name: "feat_b"
    lr_mult: 2
  }
  inner_product_param {
    num_output: 2
    weight_filler {
      type: "xavier"
    }
    bias_filler {
      type: "constant"
    }
  }
}
layer {
  name: "loss"
  type: "ContrastiveLoss"
  bottom: "feat"
  bottom: "feat_p"
  bottom: "sim"
  top: "loss"
  contrastive_loss_param {
    margin: 1
  }
}
I0415 18:07:03.992974 25957 layer_factory.hpp:77] Creating layer data_1
I0415 18:07:03.993152 25957 net.cpp:106] Creating Layer data_1
I0415 18:07:03.993214 25957 net.cpp:411] data_1 -> data
I0415 18:07:03.993336 25957 net.cpp:411] data_1 -> sim
I0415 18:07:03.993446 25957 image_data_layer.cpp:38] Opening file ./data/train1_full.txt
I0415 18:07:04.063390 25957 image_data_layer.cpp:53] A total of 14000 images.
I0415 18:07:04.198427 25957 image_data_layer.cpp:80] output data size: 100,3,227,227
I0415 18:07:04.319250 25957 net.cpp:150] Setting up data_1
I0415 18:07:04.319334 25957 net.cpp:157] Top shape: 100 3 227 227 (15458700)
I0415 18:07:04.319365 25957 net.cpp:157] Top shape: 100 (100)
I0415 18:07:04.319387 25957 net.cpp:165] Memory required for data: 61835200
I0415 18:07:04.319416 25957 layer_factory.hpp:77] Creating layer data_2
I0415 18:07:04.319469 25957 net.cpp:106] Creating Layer data_2
I0415 18:07:04.319497 25957 net.cpp:411] data_2 -> data_p
I0415 18:07:04.319536 25957 net.cpp:411] data_2 -> dummy_labels
I0415 18:07:04.319567 25957 image_data_layer.cpp:38] Opening file ./data/train2_full.txt
I0415 18:07:04.365083 25957 image_data_layer.cpp:53] A total of 14000 images.
I0415 18:07:04.371165 25957 image_data_layer.cpp:80] output data size: 100,3,227,227
I0415 18:07:04.491291 25957 net.cpp:150] Setting up data_2
I0415 18:07:04.491410 25957 net.cpp:157] Top shape: 100 3 227 227 (15458700)
I0415 18:07:04.491439 25957 net.cpp:157] Top shape: 100 (100)
I0415 18:07:04.491462 25957 net.cpp:165] Memory required for data: 123670400
I0415 18:07:04.491488 25957 layer_factory.hpp:77] Creating layer conv1
I0415 18:07:04.491565 25957 net.cpp:106] Creating Layer conv1
I0415 18:07:04.491595 25957 net.cpp:454] conv1 <- data
I0415 18:07:04.491655 25957 net.cpp:411] conv1 -> conv1
I0415 18:07:04.493412 25957 net.cpp:150] Setting up conv1
I0415 18:07:04.493453 25957 net.cpp:157] Top shape: 100 20 223 223 (99458000)
I0415 18:07:04.493479 25957 net.cpp:165] Memory required for data: 521502400
I0415 18:07:04.493530 25957 layer_factory.hpp:77] Creating layer pool1
I0415 18:07:04.493566 25957 net.cpp:106] Creating Layer pool1
I0415 18:07:04.493592 25957 net.cpp:454] pool1 <- conv1
I0415 18:07:04.493618 25957 net.cpp:411] pool1 -> pool2
I0415 18:07:04.493821 25957 net.cpp:150] Setting up pool1
I0415 18:07:04.493857 25957 net.cpp:157] Top shape: 100 20 112 112 (25088000)
I0415 18:07:04.493885 25957 net.cpp:165] Memory required for data: 621854400
I0415 18:07:04.493912 25957 layer_factory.hpp:77] Creating layer ip1
I0415 18:07:04.493963 25957 net.cpp:106] Creating Layer ip1
I0415 18:07:04.493990 25957 net.cpp:454] ip1 <- pool2
I0415 18:07:04.494019 25957 net.cpp:411] ip1 -> ip1
I0415 18:07:05.672268 25957 net.cpp:150] Setting up ip1
I0415 18:07:05.672351 25957 net.cpp:157] Top shape: 100 500 (50000)
I0415 18:07:05.672379 25957 net.cpp:165] Memory required for data: 622054400
I0415 18:07:05.672417 25957 layer_factory.hpp:77] Creating layer relu1
I0415 18:07:05.672452 25957 net.cpp:106] Creating Layer relu1
I0415 18:07:05.672490 25957 net.cpp:454] relu1 <- ip1
I0415 18:07:05.672521 25957 net.cpp:411] relu1 -> ip2
I0415 18:07:05.672577 25957 net.cpp:150] Setting up relu1
I0415 18:07:05.672611 25957 net.cpp:157] Top shape: 100 500 (50000)
I0415 18:07:05.672641 25957 net.cpp:165] Memory required for data: 622254400
I0415 18:07:05.672665 25957 layer_factory.hpp:77] Creating layer feat
I0415 18:07:05.672705 25957 net.cpp:106] Creating Layer feat
I0415 18:07:05.672730 25957 net.cpp:454] feat <- ip2
I0415 18:07:05.672767 25957 net.cpp:411] feat -> feat
I0415 18:07:05.672910 25957 net.cpp:150] Setting up feat
I0415 18:07:05.672945 25957 net.cpp:157] Top shape: 100 2 (200)
I0415 18:07:05.672969 25957 net.cpp:165] Memory required for data: 622255200
I0415 18:07:05.672997 25957 layer_factory.hpp:77] Creating layer conv1_p
I0415 18:07:05.673032 25957 net.cpp:106] Creating Layer conv1_p
I0415 18:07:05.673056 25957 net.cpp:454] conv1_p <- data_p
I0415 18:07:05.673089 25957 net.cpp:411] conv1_p -> conv1_p
I0415 18:07:05.673359 25957 net.cpp:150] Setting up conv1_p
I0415 18:07:05.673395 25957 net.cpp:157] Top shape: 100 20 223 223 (99458000)
I0415 18:07:05.673419 25957 net.cpp:165] Memory required for data: 1020087200
I0415 18:07:05.673463 25957 net.cpp:514] Sharing parameters 'conv1_w' owned by layer 'conv1', param index 0
I0415 18:07:05.673535 25957 net.cpp:514] Sharing parameters 'conv1_b' owned by layer 'conv1', param index 1
I0415 18:07:05.673562 25957 layer_factory.hpp:77] Creating layer pool1_p
I0415 18:07:05.673604 25957 net.cpp:106] Creating Layer pool1_p
I0415 18:07:05.673636 25957 net.cpp:454] pool1_p <- conv1_p
I0415 18:07:05.673666 25957 net.cpp:411] pool1_p -> pool2_p
I0415 18:07:05.673728 25957 net.cpp:150] Setting up pool1_p
I0415 18:07:05.673763 25957 net.cpp:157] Top shape: 100 20 112 112 (25088000)
I0415 18:07:05.673785 25957 net.cpp:165] Memory required for data: 1120439200
I0415 18:07:05.673809 25957 layer_factory.hpp:77] Creating layer ip1_p
I0415 18:07:05.673836 25957 net.cpp:106] Creating Layer ip1_p
I0415 18:07:05.673861 25957 net.cpp:454] ip1_p <- pool2_p
I0415 18:07:05.673889 25957 net.cpp:411] ip1_p -> ip1_p
I0415 18:07:06.847326 25957 net.cpp:150] Setting up ip1_p
I0415 18:07:06.847411 25957 net.cpp:157] Top shape: 100 500 (50000)
I0415 18:07:06.847439 25957 net.cpp:165] Memory required for data: 1120639200
I0415 18:07:06.847471 25957 net.cpp:514] Sharing parameters 'ip1_w' owned by layer 'ip1', param index 0
I0415 18:07:06.847502 25957 net.cpp:514] Sharing parameters 'ip1_b' owned by layer 'ip1', param index 1
I0415 18:07:06.847528 25957 layer_factory.hpp:77] Creating layer relu1_p
I0415 18:07:06.847559 25957 net.cpp:106] Creating Layer relu1_p
I0415 18:07:06.847584 25957 net.cpp:454] relu1_p <- ip1_p
I0415 18:07:06.847616 25957 net.cpp:411] relu1_p -> ip2_p
I0415 18:07:06.847682 25957 net.cpp:150] Setting up relu1_p
I0415 18:07:06.847726 25957 net.cpp:157] Top shape: 100 500 (50000)
I0415 18:07:06.847751 25957 net.cpp:165] Memory required for data: 1120839200
I0415 18:07:06.847781 25957 layer_factory.hpp:77] Creating layer feat_p
I0415 18:07:06.847810 25957 net.cpp:106] Creating Layer feat_p
I0415 18:07:06.847836 25957 net.cpp:454] feat_p <- ip2_p
I0415 18:07:06.847867 25957 net.cpp:411] feat_p -> feat_p
I0415 18:07:06.847991 25957 net.cpp:150] Setting up feat_p
I0415 18:07:06.848034 25957 net.cpp:157] Top shape: 100 2 (200)
I0415 18:07:06.848058 25957 net.cpp:165] Memory required for data: 1120840000
I0415 18:07:06.848083 25957 net.cpp:514] Sharing parameters 'feat_w' owned by layer 'feat', param index 0
I0415 18:07:06.848109 25957 net.cpp:514] Sharing parameters 'feat_b' owned by layer 'feat', param index 1
I0415 18:07:06.848134 25957 layer_factory.hpp:77] Creating layer loss
I0415 18:07:06.848165 25957 net.cpp:106] Creating Layer loss
…
