…
  phase: TRAIN
}
layer {
  name: "data_1"
  type: "ImageData"
  top: "data"
  top: "sim"
  include {
    phase: TRAIN
  }
  transform_param {
    mirror: true
    crop_size: 227
  }
  image_data_param {
    source: "examples/nih_pirc_siamese/data/train1.txt"
    batch_size: 100
  }
}
layer {
  name: "data_2"
  type: "ImageData"
  top: "data_p"
  top: "dummy_labels"
  include {
    phase: TRAIN
  }
  transform_param {
    mirror: true
    crop_size: 227
  }
  image_data_param {
    source: "examples/nih_pirc_siamese/data/train2.txt"
    batch_size: 100
  }
}
layer {
  name: "conv1"
  type: "Convolution"
  bottom: "data"
  top: "conv1"
  param {
    name: "conv1_w"
    lr_mult: 1
  }
  param {
    name: "conv1_b"
    lr_mult: 2
  }
  convolution_param {
    num_output: 20
    kernel_size: 5
    stride: 1
    weight_filler {
      type: "xavier"
    }
    bias_filler {
      type: "constant"
    }
  }
}
layer {
  name: "pool1"
  type: "Pooling"
  bottom: "conv1"
  top: "pool1"
  pooling_param {
    pool: MAX
    kernel_size: 2
    stride: 2
  }
}
layer {
  name: "conv2"
  type: "Convolution"
  bottom: "pool1"
  top: "conv2"
  param {
    name: "conv2_w"
    lr_mult: 1
  }
  param {
    name: "conv2_b"
    lr_mult: 2
  }
  convolution_param {
    num_output: 50
    kernel_size: 5
    stride: 1
    weight_filler {
      type: "xavier"
    }
    bias_filler {
      type: "constant"
    }
  }
}
layer {
  name: "pool2"
  type: "Pooling"
  bottom: "conv2"
  top: "pool2"
  pooling_param {
    pool: MAX
    kernel_size: 2
    stride: 2
  }
}
layer {
  name: "ip1"
  type: "InnerProduct"
  bottom: "pool2"
  top: "ip1"
  param {
    name: "ip1_w"
    lr_mult: 1
  }
  param {
    name: "ip1_b"
    lr_mult: 2
  }
  inner_product_param {
    num_output: 500
    weight_filler {
      type: "xavier"
    }
    bias_filler {
      type: "constant"
    }
  }
}
layer {
  name: "relu1"
  type: "ReLU"
  bottom: "ip1"
  top: "ip1"
}
layer {
  name: "ip2"
  type: "InnerProduct"
  bottom: "ip1"
  top: "ip2"
  param {
    name: "ip2_w"
    lr_mult: 1
  }
  param {
    name: "ip2_b"
    lr_mult: 2
  }
  inner_product_param {
    num_output: 10
    weight_filler {
      type: "xavier"
    }
    bias_filler {
      type: "constant"
    }
  }
}
layer {
  name: "feat"
  type: "InnerProduct"
  bottom: "ip2"
  top: "feat"
  param {
    name: "feat_w"
    lr_mult: 1
  }
  param {
    name: "feat_b"
    lr_mult: 2
  }
  inner_product_param {
    num_output: 2
    weight_filler {
      type: "xavier"
    }
    bias_filler {
      type: "constant"
    }
  }
}
layer {
  name: "conv1_p"
  type: "Convolution"
  bottom: "data_p"
  top: "conv1_p"
  param {
    name: "conv1_w"
    lr_mult: 1
  }
  param {
    name: "conv1_b"
    lr_mult: 2
  }
  convolution_param {
    num_output: 20
    kernel_size: 5
    stride: 1
    weight_filler {
      type: "xavier"
    }
    bias_filler {
      type: "constant"
    }
  }
}
layer {
  name: "pool1_p"
  type: "Pooling"
  bottom: "conv1_p"
  top: "pool1_p"
  pooling_param {
    pool: MAX
    kernel_size: 2
    stride: 2
  }
}
layer {
  name: "conv2_p"
  type: "Convolution"
  bottom: "pool1_p"
  top: "conv2_p"
  param {
    name: "conv2_w"
    lr_mult: 1
  }
  param {
    name: "conv2_b"
    lr_mult: 2
  }
  convolution_param {
    num_output: 50
    kernel_size: 5
    stride: 1
    weight_filler {
      type: "xavier"
    }
    bias_filler {
      type: "constant"
    }
  }
}
layer {
  name: "pool2_p"
  type: "Pooling"
  bottom: "conv2_p"
  top: "pool2_p"
  pooling_param {
    pool: MAX
    kernel_size: 2
    stride: 2
  }
}
layer {
  name: "ip1_p"
  type: "InnerProduct"
  bottom: "pool2_p"
  top: "ip1_p"
  param {
    name: "ip1_w"
    lr_mult: 1
  }
  param {
    name: "ip1_b"
    lr_mult: 2
  }
  inner_product_param {
    num_output: 500
    weight_filler {
      type: "xavier"
    }
    bias_filler {
      type: "constant"
    }
  }
}
layer {
  name: "relu1_p"
  type: "ReLU"
  bottom: "ip1_p"
  top: "ip1_p"
}
layer {
  name: "ip2_p"
  type: "InnerProduct"
  bottom: "ip1_p"
  top: "ip2_p"
  param {
    name: "ip2_w"
    lr_mult: 1
  }
  param {
    name: "ip2_b"
    lr_mult: 2
  }
  inner_product_param {
    num_output: 10
    weight_filler {
      type: "xavier"
    }
    bias_filler {
      type: "constant"
    }
  }
}
layer {
  name: "feat_p"
  type: "InnerProduct"
  bottom: "ip2_p"
  top: "feat_p"
  param {
    name: "feat_w"
    lr_mult: 1
  }
  param {
    name: "feat_b"
    lr_mult: 2
  }
  inner_product_param {
    num_output: 2
    weight_filler {
      type: "xavier"
    }
    bias_filler {
      type: "constant"
    }
  }
}
layer {
  name: "loss"
  type: "ContrastiveLoss"
  bottom: "feat"
  bottom: "feat_p"
  bottom: "sim"
  top: "loss"
  contrastive_loss_param {
    margin: 1
  }
}
I0404 12:35:14.527576 53066 layer_factory.hpp:77] Creating layer data_1
I0404 12:35:14.527750 53066 net.cpp:106] Creating Layer data_1
I0404 12:35:14.527806 53066 net.cpp:411] data_1 -> data
I0404 12:35:14.527904 53066 net.cpp:411] data_1 -> sim
I0404 12:35:14.528482 53066 image_data_layer.cpp:38] Opening file examples/nih_pirc_siamese/data/train1.txt
I0404 12:35:14.541911 53066 image_data_layer.cpp:53] A total of 14000 images.
I0404 12:35:14.651985 53066 image_data_layer.cpp:80] output data size: 100,3,227,227
I0404 12:35:14.779350 53066 net.cpp:150] Setting up data_1
I0404 12:35:14.779454 53066 net.cpp:157] Top shape: 100 3 227 227 (15458700)
I0404 12:35:14.779484 53066 net.cpp:157] Top shape: 100 (100)
I0404 12:35:14.779512 53066 net.cpp:165] Memory required for data: 61835200
I0404 12:35:14.779544 53066 layer_factory.hpp:77] Creating layer data_2
I0404 12:35:14.779605 53066 net.cpp:106] Creating Layer data_2
I0404 12:35:14.779634 53066 net.cpp:411] data_2 -> data_p
I0404 12:35:14.779678 53066 net.cpp:411] data_2 -> dummy_labels
I0404 12:35:14.779716 53066 image_data_layer.cpp:38] Opening file examples/nih_pirc_siamese/data/train2.txt
I0404 12:35:14.790945 53066 image_data_layer.cpp:53] A total of 14000 images.
I0404 12:35:15.374956 53066 image_data_layer.cpp:80] output data size: 100,3,227,227
I0404 12:35:15.508827 53066 net.cpp:150] Setting up data_2
I0404 12:35:15.508949 53066 net.cpp:157] Top shape: 100 3 227 227 (15458700)
I0404 12:35:15.508980 53066 net.cpp:157] Top shape: 100 (100)
I0404 12:35:15.509002 53066 net.cpp:165] Memory required for data: 123670400
I0404 12:35:15.509028 53066 layer_factory.hpp:77] Creating layer conv1
I0404 12:35:15.509111 53066 net.cpp:106] Creating Layer conv1
I0404 12:35:15.509142 53066 net.cpp:454] conv1 <- data
I0404 12:35:15.509192 53066 net.cpp:411] conv1 -> conv1
I0404 12:35:15.511116 53066 net.cpp:150] Setting up conv1
I0404 12:35:15.511180 53066 net.cpp:157] Top shape: 100 20 223 223 (99458000)
I0404 12:35:15.511205 53066 net.cpp:165] Memory required for data: 521502400
I0404 12:35:15.511262 53066 layer_factory.hpp:77] Creating layer pool1
I0404 12:35:15.511299 53066 net.cpp:106] Creating Layer pool1
I0404 12:35:15.511324 53066 net.cpp:454] pool1 <- conv1
I0404 12:35:15.511363 53066 net.cpp:411] pool1 -> pool1
I0404 12:35:15.511553 53066 net.cpp:150] Setting up pool1
I0404 12:35:15.511602 53066 net.cpp:157] Top shape: 100 20 112 112 (25088000)
I0404 12:35:15.511718 53066 net.cpp:165] Memory required for data: 621854400
I0404 12:35:15.511749 53066 layer_factory.hpp:77] Creating layer conv2
I0404 12:35:15.511788 53066 net.cpp:106] Creating Layer conv2
I0404 12:35:15.511821 53066 net.cpp:454] conv2 <- pool1
I0404 12:35:15.511864 53066 net.cpp:411] conv2 -> conv2
I0404 12:35:15.512877 53066 net.cpp:150] Setting up conv2
I0404 12:35:15.512920 53066 net.cpp:157] Top shape: 100 50 108 108 (58320000)
I0404 12:35:15.512945 53066 net.cpp:165] Memory required for data: 855134400
I0404 12:35:15.512974 53066 layer_factory.hpp:77] Creating layer pool2
I0404 12:35:15.513006 53066 net.cpp:106] Creating Layer pool2
I0404 12:35:15.513031 53066 net.cpp:454] pool2 <- conv2
I0404 12:35:15.513072 53066 net.cpp:411] pool2 -> pool2
I0404 12:35:15.513134 53066 net.cpp:150] Setting up pool2
I0404 12:35:15.513181 53066 net.cpp:157] Top shape: 100 50 54 54 (14580000)
I0404 12:35:15.513207 53066 net.cpp:165] Memory required for data: 913454400
I0404 12:35:15.513245 53066 layer_factory.hpp:77] Creating layer ip1
I0404 12:35:15.513300 53066 net.cpp:106] Creating Layer ip1
I0404 12:35:15.513331 53066 net.cpp:454] ip1 <- pool2
I0404 12:35:15.513371 53066 net.cpp:411] ip1 -> ip1
I0404 12:35:16.182430 53066 net.cpp:150] Setting up ip1
I0404 12:35:16.182591 53066 net.cpp:157] Top shape: 100 500 (50000)
I0404 12:35:16.182618 53066 net.cpp:165] Memory required for data: 913654400
I0404 12:35:16.182662 53066 layer_factory.hpp:77] Creating layer relu1
I0404 12:35:16.182700 53066 net.cpp:106] Creating Layer relu1
I0404 12:35:16.182725 53066 net.cpp:454] relu1 <- ip1
I0404 12:35:16.182755 53066 net.cpp:397] relu1 -> ip1 (in-place)
I0404 12:35:16.182796 53066 net.cpp:150] Setting up relu1
I0404 12:35:16.182822 53066 net.cpp:157] Top shape: 100 500 (50000)
I0404 12:35:16.182845 53066 net.cpp:165] Memory required for data: 913854400
I0404 12:35:16.182868 53066 layer_factory.hpp:77] Creating layer ip2
I0404 12:35:16.182904 53066 net.cpp:106] Creating Layer ip2
I0404 12:35:16.182929 53066 net.cpp:454] ip2 <- ip1
I0404 12:35:16.182955 53066 net.cpp:411] ip2 -> ip2
I0404 12:35:16.183115 53066 net.cpp:150] Setting up ip2
I0404 12:35:16.183148 53066 net.cpp:157] Top shape: 100 10 (1000)
I0404 12:35:16.183171 53066 net.cpp:165] Memory required for data: 913858400
I0404 12:35:16.183197 53066 layer_factory.hpp:77] Creating layer feat
I0404 12:35:16.183225 53066 net.cpp:106] Creating Layer feat
I0404 12:35:16.183250 53066 net.cpp:454] feat <- ip2
I0404 12:35:16.183276 53066 net.cpp:411] feat -> feat
I0404 12:35:16.183380 53066 net.cpp:150] Setting up feat
I0404 12:35:16.183413 53066 net.cpp:157] Top shape: 100 2 (200)
I0404 12:35:16.183436 53066 net.cpp:165] Memory required for data: 913859200
I0404 12:35:16.183465 53066 layer_factory.hpp:77] Creating layer conv1_p
I0404 12:35:16.183506 53066 net.cpp:106] Creating Layer conv1_p
I0404 12:35:16.183533 53066 net.cpp:454] conv1_p <- data_p
I0404 12:35:16.183562 53066 net.cpp:411] conv1_p -> conv1_p
I0404 12:35:16.183848 53066 net.cpp:150] Setting up conv1_p
I0404 12:35:16.183883 53066 net.cpp:157] Top shape: 100 20 223 223 (99458000)
I0404 12:35:16.183907 53066 net.cpp:165] Memory required for data: 1311691200
I0404 12:35:16.183930 53066 net.cpp:514] Sharing parameters 'conv1_w' owned by layer 'conv1', param index 0
I0404 12:35:16.183955 53066 net.cpp:514] Sharing parameters 'conv1_b' owned by layer 'conv1', param index 1
I0404 12:35:16.183979 53066 layer_factory.hpp:77] Creating layer pool1_p
I0404 12:35:16.184006 53066 net.cpp:106] Creating Layer pool1_p
I0404 12:35:16.184029 53066 net.cpp:454] pool1_p <- conv1_p
I0404 12:35:16.184057 53066 net.cpp:411] pool1_p -> pool1_p
I0404 12:35:16.184119 53066 net.cpp:150] Setting up pool1_p
I0404 12:35:16.184151 53066 net.cpp:157] Top shape: 100 20 112 112 (25088000)
I0404 12:35:16.184175 53066 net.cpp:165] Memory required for data: 1412043200
I0404 12:35:16.184196 53066 layer_factory.hpp:77] Creating layer conv2_p
I0404 12:35:16.184228 53066 net.cpp:106] Creating Layer conv2_p
I0404 12:35:16.184281 53066 net.cpp:454] conv2_p <- pool1_p
I0404 12:35:16.184351 53066 net.cpp:411] conv2_p -> conv2_p
I0404 12:35:16.184743 53066 net.cpp:150] Setting up conv2_p
I0404 12:35:16.184780 53066 net.cpp:157] Top shape: 100 50 108 108 (58320000)
I0404 12:35:16.184803 53066 net.cpp:165] Memory required for data: 1645323200
I0404 12:35:16.184825 53066 net.cpp:514] Sharing parameters 'conv2_w' owned by layer 'conv2', param index 0
I0404 12:35:16.184849 53066 net.cpp:514] Sharing parameters 'conv2_b' owned by layer 'conv2', param index 1
I0404 12:35:16.184872 53066 layer_factory.hpp:77] Creating layer pool2_p
I0404 12:35:16.184897 53066 net.cpp:106] Creating Layer pool2_p
I0404 12:35:16.184921 53066 net.cpp:454] pool2_p <- conv2_p
I0404 12:35:16.184947 53066 net.cpp:411] pool2_p -> pool2_p
I0404 12:35:16.185003 53066 net.cpp:150] Setting up pool2_p
I0404 12:35:16.185036 53066 net.cpp:157] Top shape: 100 50 54 54 (14580000)
I0404 12:35:16.185058 53066 net.cpp:165] Memory required for data: 1703643200
I0404 12:35:16.185081 53066 layer_factory.hpp:77] Creating layer ip1_p
I0404 12:35:16.185108 53066 net.cpp:106] Creating Layer ip1_p
I0404 12:35:16.185132 53066 net.cpp:454] ip1_p <- pool2_p
I0404 12:35:16.185158 53066 net.cpp:411] ip1_p -> ip1_p
I0404 12:35:16.821578 53066 net.cpp:150] Setting up ip1_p
I0404 12:35:16.821666 53066 net.cpp:157] Top shape: 100 500 (50000)
I0404 12:35:16.821696 53066 net.cpp:165] Memory required for data: 1703843200
I0404 12:35:16.821727 53066 net.cpp:514] Sharing parameters 'ip1_w' owned by layer 'ip1', param index 0
I0404 12:35:16.821755 53066 net.cpp:514] Sharing parameters 'ip1_b' owned by layer 'ip1', param index 1
I0404 12:35:16.821781 53066 layer_factory.hpp:77] Creating layer relu1_p
I0404 12:35:16.821817 53066 net.cpp:106] Creating Layer relu1_p
I0404 12:35:16.821849 53066 net.cpp:454] relu1_p <- ip1_p
I0404 12:35:16.821884 53066 net.cpp:397] relu1_p -> ip1_p (in-place)
I0404 12:35:16.821924 53066 net.cpp:150] Setting up relu1_p
I0404 12:35:16.821954 53066 net.cpp:157] Top shape: 100 500 (50000)
I0404 12:35:16.821977 53066 net.cpp:165] Memory required for data: 1704043200
I0404 12:35:16.822001 53066 layer_factory.hpp:77] Creating layer ip2_p
I0404 12:35:16.822046 53066 net.cpp:106] Creating Layer ip2_p
I0404 12:35:16.822077 53066 net.cpp:454] ip2_p <- ip1_p
I0404 12:35:16.822115 53066 net.cpp:411] ip2_p -> ip2_p
I0404 12:35:16.822300 53066 net.cpp:150] Setting up ip2_p
I0404 12:35:16.822355 53066 net.cpp:157] Top shape: 100 10 (1000)
I0404 12:35:16.822381 53066 net.cpp:165] Memory required for data: 1704047200
I0404 12:35:16.822415 53066 net.cpp:514] Sharing parameters 'ip2_w' owned by layer 'ip2', param index 0
I0404 12:35:16.822448 53066 net.cpp:514] Sharing parameters 'ip2_b' owned by layer 'ip2', param index 1
I0404 12:35:16.822477 53066 layer_factory.hpp:77] Creating layer feat_p
I0404 12:35:16.822516 53066 net.cpp:106] Creating Layer feat_p
I0404 12:35:16.822547 53066 net.cpp:454] feat_p <- ip2_p
I0404 12:35:16.822578 53066 net.cpp:411] feat_p -> feat_p
I0404 12:35:16.822697 53066 net.cpp:150] Setting up feat_p
I0404 12:35:16.822736 53066 net.cpp:157] Top shape: 100 2 (200)
I0404 12:35:16.822759 53066 net.cpp:165] Memory required for data: 1704048000
I0404 12:35:16.822784 53066 net.cpp:514] Sharing parameters 'feat_w' owned by layer 'feat', param index 0
I0404 12:35:16.822811 53066 net.cpp:514] Sharing parameters 'feat_b' owned by layer 'feat', param index 1
I0404 12:35:16.822849 53066 layer_factory.hpp:77] Creating layer loss
I0404 12:35:16.822877 53066 net.cpp:106] Creating Layer loss
…
