…
I0415 23:25:33.676733 23560 net.cpp:322] The NetState phase (0) differed from the phase (1) specified by a rule in layer data_2
I0415 23:25:33.676908 23560 net.cpp:49] Initializing net from parameters: 
name: "nih_pirc_siamese_train_test"
state {
  phase: TRAIN
}
layer {
  name: "data_1"
  type: "ImageData"
  top: "data"
  top: "sim"
  include {
    phase: TRAIN
  }
  image_data_param {
    source: "data/train1_ss.txt"
    batch_size: 100
  }
}
layer {
  name: "data_2"
  type: "ImageData"
  top: "data_p"
  top: "dummy_labels"
  include {
    phase: TRAIN
  }
  image_data_param {
    source: "data/train2_ss.txt"
    batch_size: 100
  }
}
layer {
  name: "conv1"
  type: "Convolution"
  bottom: "data"
  top: "conv1"
  param {
    name: "conv1_w"
    lr_mult: 1
  }
  param {
    name: "conv1_b"
    lr_mult: 2
  }
  convolution_param {
    num_output: 20
    kernel_size: 5
    stride: 1
    weight_filler {
      type: "xavier"
    }
    bias_filler {
      type: "constant"
    }
  }
}
layer {
  name: "pool1"
  type: "Pooling"
  bottom: "conv1"
  top: "pool2"
  pooling_param {
    pool: MAX
    kernel_size: 2
    stride: 2
  }
}
layer {
  name: "ip1"
  type: "InnerProduct"
  bottom: "pool2"
  top: "ip1"
  param {
    name: "ip1_w"
    lr_mult: 1
  }
  param {
    name: "ip1_b"
    lr_mult: 2
  }
  inner_product_param {
    num_output: 500
    weight_filler {
      type: "xavier"
    }
    bias_filler {
      type: "constant"
    }
  }
}
layer {
  name: "relu1"
  type: "ReLU"
  bottom: "ip1"
  top: "ip2"
}
layer {
  name: "feat"
  type: "InnerProduct"
  bottom: "ip2"
  top: "feat"
  param {
    name: "feat_w"
    lr_mult: 1
  }
  param {
    name: "feat_b"
    lr_mult: 2
  }
  inner_product_param {
    num_output: 2
    weight_filler {
      type: "xavier"
    }
    bias_filler {
      type: "constant"
    }
  }
}
layer {
  name: "conv1_p"
  type: "Convolution"
  bottom: "data_p"
  top: "conv1_p"
  param {
    name: "conv1_w"
    lr_mult: 1
  }
  param {
    name: "conv1_b"
    lr_mult: 2
  }
  convolution_param {
    num_output: 20
    kernel_size: 5
    stride: 1
    weight_filler {
      type: "xavier"
    }
    bias_filler {
      type: "constant"
    }
  }
}
layer {
  name: "pool1_p"
  type: "Pooling"
  bottom: "conv1_p"
  top: "pool2_p"
  pooling_param {
    pool: MAX
    kernel_size: 2
    stride: 2
  }
}
layer {
  name: "ip1_p"
  type: "InnerProduct"
  bottom: "pool2_p"
  top: "ip1_p"
  param {
    name: "ip1_w"
    lr_mult: 1
  }
  param {
    name: "ip1_b"
    lr_mult: 2
  }
  inner_product_param {
    num_output: 500
    weight_filler {
      type: "xavier"
    }
    bias_filler {
      type: "constant"
    }
  }
}
layer {
  name: "relu1_p"
  type: "ReLU"
  bottom: "ip1_p"
  top: "ip2_p"
}
layer {
  name: "feat_p"
  type: "InnerProduct"
  bottom: "ip2_p"
  top: "feat_p"
  param {
    name: "feat_w"
    lr_mult: 1
  }
  param {
    name: "feat_b"
    lr_mult: 2
  }
  inner_product_param {
    num_output: 2
    weight_filler {
      type: "xavier"
    }
    bias_filler {
      type: "constant"
    }
  }
}
layer {
  name: "loss"
  type: "ContrastiveLoss"
  bottom: "feat"
  bottom: "feat_p"
  bottom: "sim"
  top: "loss"
  contrastive_loss_param {
    margin: 1
  }
}
I0415 23:25:33.677134 23560 layer_factory.hpp:77] Creating layer data_1
I0415 23:25:33.677333 23560 net.cpp:106] Creating Layer data_1
I0415 23:25:33.677378 23560 net.cpp:411] data_1 -> data
I0415 23:25:33.677501 23560 net.cpp:411] data_1 -> sim
I0415 23:25:33.677673 23560 image_data_layer.cpp:38] Opening file data/train1_ss.txt
I0415 23:25:33.692179 23560 image_data_layer.cpp:53] A total of 14000 images.
I0415 23:25:33.789120 23560 image_data_layer.cpp:80] output data size: 100,3,227,227
I0415 23:25:33.909477 23560 net.cpp:150] Setting up data_1
I0415 23:25:33.909579 23560 net.cpp:157] Top shape: 100 3 227 227 (15458700)
I0415 23:25:33.909607 23560 net.cpp:157] Top shape: 100 (100)
I0415 23:25:33.909631 23560 net.cpp:165] Memory required for data: 61835200
I0415 23:25:33.909678 23560 layer_factory.hpp:77] Creating layer data_2
I0415 23:25:33.909729 23560 net.cpp:106] Creating Layer data_2
I0415 23:25:33.909757 23560 net.cpp:411] data_2 -> data_p
I0415 23:25:33.909801 23560 net.cpp:411] data_2 -> dummy_labels
I0415 23:25:33.909833 23560 image_data_layer.cpp:38] Opening file data/train2_ss.txt
I0415 23:25:33.922183 23560 image_data_layer.cpp:53] A total of 14000 images.
I0415 23:25:33.929618 23560 image_data_layer.cpp:80] output data size: 100,3,227,227
I0415 23:25:34.055398 23560 net.cpp:150] Setting up data_2
I0415 23:25:34.055531 23560 net.cpp:157] Top shape: 100 3 227 227 (15458700)
I0415 23:25:34.055563 23560 net.cpp:157] Top shape: 100 (100)
I0415 23:25:34.055605 23560 net.cpp:165] Memory required for data: 123670400
I0415 23:25:34.055635 23560 layer_factory.hpp:77] Creating layer conv1
I0415 23:25:34.055753 23560 net.cpp:106] Creating Layer conv1
I0415 23:25:34.055799 23560 net.cpp:454] conv1 <- data
I0415 23:25:34.055847 23560 net.cpp:411] conv1 -> conv1
I0415 23:25:34.057818 23560 net.cpp:150] Setting up conv1
I0415 23:25:34.057868 23560 net.cpp:157] Top shape: 100 20 223 223 (99458000)
I0415 23:25:34.057894 23560 net.cpp:165] Memory required for data: 521502400
I0415 23:25:34.057976 23560 layer_factory.hpp:77] Creating layer pool1
I0415 23:25:34.058008 23560 net.cpp:106] Creating Layer pool1
I0415 23:25:34.058033 23560 net.cpp:454] pool1 <- conv1
I0415 23:25:34.058059 23560 net.cpp:411] pool1 -> pool2
I0415 23:25:34.058359 23560 net.cpp:150] Setting up pool1
I0415 23:25:34.058394 23560 net.cpp:157] Top shape: 100 20 112 112 (25088000)
I0415 23:25:34.058418 23560 net.cpp:165] Memory required for data: 621854400
I0415 23:25:34.058441 23560 layer_factory.hpp:77] Creating layer ip1
I0415 23:25:34.058491 23560 net.cpp:106] Creating Layer ip1
I0415 23:25:34.058524 23560 net.cpp:454] ip1 <- pool2
I0415 23:25:34.058557 23560 net.cpp:411] ip1 -> ip1
I0415 23:25:35.247469 23560 net.cpp:150] Setting up ip1
I0415 23:25:35.247602 23560 net.cpp:157] Top shape: 100 500 (50000)
I0415 23:25:35.247642 23560 net.cpp:165] Memory required for data: 622054400
I0415 23:25:35.247700 23560 layer_factory.hpp:77] Creating layer relu1
I0415 23:25:35.247753 23560 net.cpp:106] Creating Layer relu1
I0415 23:25:35.247781 23560 net.cpp:454] relu1 <- ip1
I0415 23:25:35.247812 23560 net.cpp:411] relu1 -> ip2
I0415 23:25:35.247885 23560 net.cpp:150] Setting up relu1
I0415 23:25:35.247917 23560 net.cpp:157] Top shape: 100 500 (50000)
I0415 23:25:35.247952 23560 net.cpp:165] Memory required for data: 622254400
I0415 23:25:35.247980 23560 layer_factory.hpp:77] Creating layer feat
I0415 23:25:35.248010 23560 net.cpp:106] Creating Layer feat
I0415 23:25:35.248034 23560 net.cpp:454] feat <- ip2
I0415 23:25:35.248071 23560 net.cpp:411] feat -> feat
I0415 23:25:35.248209 23560 net.cpp:150] Setting up feat
I0415 23:25:35.248253 23560 net.cpp:157] Top shape: 100 2 (200)
I0415 23:25:35.248291 23560 net.cpp:165] Memory required for data: 622255200
I0415 23:25:35.248320 23560 layer_factory.hpp:77] Creating layer conv1_p
I0415 23:25:35.248356 23560 net.cpp:106] Creating Layer conv1_p
I0415 23:25:35.248383 23560 net.cpp:454] conv1_p <- data_p
I0415 23:25:35.248422 23560 net.cpp:411] conv1_p -> conv1_p
I0415 23:25:35.248769 23560 net.cpp:150] Setting up conv1_p
I0415 23:25:35.248810 23560 net.cpp:157] Top shape: 100 20 223 223 (99458000)
I0415 23:25:35.248834 23560 net.cpp:165] Memory required for data: 1020087200
I0415 23:25:35.248885 23560 net.cpp:514] Sharing parameters 'conv1_w' owned by layer 'conv1', param index 0
I0415 23:25:35.248968 23560 net.cpp:514] Sharing parameters 'conv1_b' owned by layer 'conv1', param index 1
I0415 23:25:35.249019 23560 layer_factory.hpp:77] Creating layer pool1_p
I0415 23:25:35.249084 23560 net.cpp:106] Creating Layer pool1_p
I0415 23:25:35.249111 23560 net.cpp:454] pool1_p <- conv1_p
I0415 23:25:35.249138 23560 net.cpp:411] pool1_p -> pool2_p
I0415 23:25:35.249199 23560 net.cpp:150] Setting up pool1_p
I0415 23:25:35.249231 23560 net.cpp:157] Top shape: 100 20 112 112 (25088000)
I0415 23:25:35.249255 23560 net.cpp:165] Memory required for data: 1120439200
I0415 23:25:35.249279 23560 layer_factory.hpp:77] Creating layer ip1_p
I0415 23:25:35.249326 23560 net.cpp:106] Creating Layer ip1_p
I0415 23:25:35.249369 23560 net.cpp:454] ip1_p <- pool2_p
I0415 23:25:35.249411 23560 net.cpp:411] ip1_p -> ip1_p
I0415 23:25:36.396127 23560 net.cpp:150] Setting up ip1_p
I0415 23:25:36.396270 23560 net.cpp:157] Top shape: 100 500 (50000)
I0415 23:25:36.396296 23560 net.cpp:165] Memory required for data: 1120639200
I0415 23:25:36.396333 23560 net.cpp:514] Sharing parameters 'ip1_w' owned by layer 'ip1', param index 0
I0415 23:25:36.396363 23560 net.cpp:514] Sharing parameters 'ip1_b' owned by layer 'ip1', param index 1
I0415 23:25:36.396401 23560 layer_factory.hpp:77] Creating layer relu1_p
I0415 23:25:36.396451 23560 net.cpp:106] Creating Layer relu1_p
I0415 23:25:36.396476 23560 net.cpp:454] relu1_p <- ip1_p
I0415 23:25:36.396505 23560 net.cpp:411] relu1_p -> ip2_p
I0415 23:25:36.396559 23560 net.cpp:150] Setting up relu1_p
I0415 23:25:36.396589 23560 net.cpp:157] Top shape: 100 500 (50000)
I0415 23:25:36.396623 23560 net.cpp:165] Memory required for data: 1120839200
I0415 23:25:36.396646 23560 layer_factory.hpp:77] Creating layer feat_p
I0415 23:25:36.396698 23560 net.cpp:106] Creating Layer feat_p
I0415 23:25:36.396726 23560 net.cpp:454] feat_p <- ip2_p
I0415 23:25:36.396754 23560 net.cpp:411] feat_p -> feat_p
I0415 23:25:36.396888 23560 net.cpp:150] Setting up feat_p
I0415 23:25:36.396934 23560 net.cpp:157] Top shape: 100 2 (200)
I0415 23:25:36.396957 23560 net.cpp:165] Memory required for data: 1120840000
I0415 23:25:36.396992 23560 net.cpp:514] Sharing parameters 'feat_w' owned by layer 'feat', param index 0
I0415 23:25:36.397018 23560 net.cpp:514] Sharing parameters 'feat_b' owned by layer 'feat', param index 1
I0415 23:25:36.397042 23560 layer_factory.hpp:77] Creating layer loss
I0415 23:25:36.397071 23560 net.cpp:106] Creating Layer loss
…
